results/energy/checkpoints/A02_H064_L02_D01_Tanh_W4096_P010000_V0.00e+00_S5.00e-01_Adam_PT_False_device_cuda_dtype_float32_chkp.pt (torch, 168147 bytes, 23 tensors)

layers.0.fc.weight f4 [64, 2]
00000000: 0fd3 25bd a5d8 cc3e 26d3 14bf 75f0 01bf
00000010: a792 83be cf93 423e dfe4 32bc 0ba9 073f
00000020: f5d6 32bd 7120 263e 5180 66be 5c49 e4bd
00000030: 4277 1fbf 6448 eebe e20c 7fbe 7077 ef3c
00000040: 50c4 923e 1bc4 e93e 4063 f6be c558 5fbe
00000050: c8a4 853e 534a 0a3f 9cee 15be ccc0 053f
00000060: e1c4 b0bd 131f 583d fa4b 243f 130d 11bf
00000070: 64ef d9be 28eb 22be 5714 93be e94c 173f
00000080: c54e c8be b91b 8dbe 6b2a f6be 933c 30bf
00000090: e707 dabe f6c7 073f 5b34 a73e d494 993e
000000a0: 762e 653d 15e2 a5be a321 e23d d857 32bf
000000b0: cb50 ebbe 1b9c bfbe 9f84 e73e e502 8b3e
000000c0: 15e0 8cbe 3bed d4bb 2760 f63e d7b6 163f
000000d0: 0631 973e 479d 7d3d 75b1 fc3e 5252 a8be
000000e0: 8a66 183e 2b19 f0be 6e97 f8be 8d75 96be
000000f0: afa7 9d3e 2b9b 943e d196 d2be 8cee 1e3e
00000100: 3969 c73e 24cf 86bd 25a6 2f3c 4326 1e3e
00000110: 9a76 e03e c8ac e53e 74c4 07bf b8d5 9abd
00000120: 118d 893e f1a2 f53e 5570 0f3f 7be4 103f
00000130: fd2d 183e 0b3f 16bf 446d 3d3d ad1f c3be
00000140: 67ad 2ebf f8c5 f23e 012d 103f 8cfb 31bf
00000150: 21a7 ee3d 23ae c3bd a04e cdbd 830a 97be
00000160: 4d52 933e f2dd 01bf 5b22 833e 8e20 ca3e
00000170: e511 033f 54c9 763e 783a 2bbf 6ba4 e4be
00000180: 2862 ae3e abed 0a3e 4dff 0cbf dd60 c4be
00000190: b974 263f 8b2a f53e e382 a6be c5a4 35be
000001a0: 6525 21bf ed2e 393d ffa4 0abf 8795 c1be
000001b0: 199d 80bd 9d4f fa3d 546f 9fbe 8cfe b73e
000001c0: 7ca3 d2be b6da 283f dddc fd3e 7bf2 18bf
000001d0: bdca 21be 7a6f 653d 4289 073e a1da 153e
000001e0: 1533 823e 4ec7 153d 65e0 95be 4b5d 8c3e
000001f0: 4fc0 26bf 9686 e9be 899f 1ebe 3661 80be
-0.040484484 0.40009037 -0.58134687 -0.50757533 -0.25697824 0.19001697 -0.010918825 0.52992314
-0.04366203 0.16223313 -0.22509886 -0.11146805 -0.6229135 -0.46539605 -0.24907258 0.029231757
0.286654 0.4565743 -0.48122597 -0.21811207 0.2610228 0.5401966 -0.14641804 0.5224731
-0.08631302 0.05276401 0.6417843 -0.56660575 -0.42565453 -0.15910017 -0.28726456 0.5910173
-0.39122596 -0.27560213 -0.48079237 -0.6884243 -0.42584154 0.5303949 0.32657132 0.2999636
0.05595251 -0.3239905 0.11041572 -0.6966529 -0.45960078 -0.37423787 0.4521837 0.27150646
-0.2751471 -0.0064980066 0.48120233 0.5887274 0.2952959 0.06191757 0.4935414 -0.32875305
0.14882866 -0.46894202 -0.48553032 -0.2938656 0.30791995 0.29024634 -0.4113069 0.15520686
0.38947466 -0.06582478 0.010720764 0.15444283 0.43840486 0.44858384 -0.5303414 -0.07560295
0.26865438 0.47975877 0.5603078 0.56598634 0.14861293 -0.58689946 0.046246782 -0.38110104
-0.6823334 0.47416663 0.5631867 -0.69524455 0.11652971 -0.09554698 -0.10024762 -0.29500207
0.28773728 -0.50729287 0.2561215 0.39477962 0.5119918 0.24100238 -0.6688609 -0.4465669
0.34059262 0.13567226 -0.5507706 -0.3835515 0.65021855 0.4788402 -0.32521734 -0.17738636
-0.62947685 0.045210768 -0.54158014 -0.37809393 -0.06279964 0.12222216 -0.31139624 0.3593639
-0.41140354 0.65958726 0.49582568 -0.59744996 -0.15799995 0.056014515 0.13235953 0.14634182
0.25429597 0.036567025 -0.29272762 0.27414927 -0.6513719 -0.45610493 -0.15490545 -0.25074166

layers.0.fc.bias f4 [64]
00000000: 31d2 72be 605f 0cbf ceb7 34be ad29 193e
00000010: 6b8b f4be 29c8 7ebd 2837 fe3e 2945 f7bd
00000020: b407 c43c 0842 3fbd 1120 1c3e 3850 e93e
00000030: 6171 323f b78b 033f 26cb 2f3f 15b8 41bd
00000040: 800c 28bf 2b06 b9be 6adf f93e 89fd 5ebc
00000050: 71b6 babe c4a4 0abf 1b39 32bf a5e1 26bf
00000060: 056e 36be e44d d23e f739 d43e 56c2 34bf
00000070: aeef ef3e a0e8 12bf 201b e7bd aac1 a0be
00000080: c1ab 12be 80b6 2abe 672e 32bf f667 3abf
00000090: edb6 eabd c7ee 403c 492a a7be b513 8e3e
000000a0: c980 20bf 397a 08bd d6b3 243f 8723 9bbe
000000b0: 119e 223f 4cf3 713e bc7f 27bf 2228 f53e
000000c0: a499 9abd b1c9 a9be 3990 063f f47d 10bf
000000d0: 0c78 a23d 33f3 19be 5ad4 fc3e 933e 513e
000000e0: 4fc6 b03e b9dd 883e 7a9f 44be 9efa 15be
000000f0: c419 1cbf 7a97 cd3e c4df 0d3f 9f24 fd3e
-0.23712994 -0.5483303 -0.17648241 0.14957304 -0.47762617 -0.062202606 0.49651456 -0.12073738
0.023929454 -0.04669383 0.15246607 0.45569015 0.6970425 0.5138506 0.68669355 -0.047294695
-0.65644073 -0.36137518 0.48803264 -0.013610252 -0.36467317 -0.5415766 -0.69618386 -0.65188056
-0.17815407 0.4107505 0.41450474 -0.70609033 0.4686255 -0.5738621 -0.112844706 -0.31397754
-0.14323331 -0.1667118 -0.69602054 -0.7281488 -0.114606716 0.011775679 -0.3264945 0.2774941
-0.6269651 -0.033319686 0.6433691 -0.30300543 0.6352244 0.23627967 -0.6542928 0.4788218
-0.07548836 -0.3316169 0.52563816 -0.5644219 0.079330534 -0.1503418 0.4938076 0.20434026
0.34526297 0.2673166 -0.1920146 -0.14646384 -0.60976815 0.4015463 0.55419564 0.49442002

layers.1.fc.weight f4 [64, 128]
00000000: 09e0 77bd cb1c c3bb 62d7 2fbd 9af6 f7bc
00000010: c081 6dbd 4208 2f3d 5616 3cbd c995 7c3c
00000020: f5c3 153b 07e2 873d 3998 65bd 71b8 59bd
00000030: b675 23bd 9b54 163d 6eeb 8cbc c7d6 c73d
00000040: 470e d03c 5049 203b 2e7f b13b abf0 c7bc
00000050: 767f 923a 0f55 d2bc 8484 09bc db12 b239
00000060: 094b 4abd f023 10bd e7ac 983d ecea a3bd
00000070: d9fd 47bc 4895 a53d 6dee c03c ecef a43c
00000080: 169b babd 4035 1e3d c1cb 84bd db9f dcbc
00000090: 43a7 f3bc 5880 86bc fa33 04bc 73d5 8b3d
000000a0: d90b 043d a095 873d b380 833d 10c5 87bd
000000b0: 0a2c 133d ecc7 60bd 1558 3fbd bab9 0d3d
000000c0: b447 853c 74a4 863d 6cfb a6bc 24a6 dfbb
000000d0: 9c9f 6b3d 7791 a7bd b7b8 973d 0f2a 7dbd
000000e0: 3a72 023c d523 26bd e769 2cbd b6b0 233b
000000f0: 9efe 6f3d 1c86 7dbc 0239 37bd b952 bebc
00000100: 5449 b2bd 4892 fe3c be9f 48bd a389 24bd
00000110: a801 72bd 8659 063d b02c 283d 41bd 6e3d
00000120: 845d 813d c153 42bd 899f b1ba 37dc 0c3d
00000130: e36b c53d dec3 983c 2e53 34bd 55eb 13bd
00000140: cdf0 afbd af5c b13b 66b8 49bd 2e31 58bd
00000150: f039 8a3d 1726 83bd 0325 5fbc d34c f93c
00000160: f1bc 9abb 0832 45bd 6115 87bd 07a4 973d
00000170: 0089 8d3c 68b0 8c3d f53c 96bc a7eb cc3c
00000180: f2fb a3bc 3018 fcbb 2ac9 39bd 5d58 fa3c
00000190: 08a2 603d 88c3 c83c fd0a eebc 4139 5dbd
000001a0: 6e9d 8e3d 75e4 7bbd f0b6 4a3d eb0c 24bd
000001b0: ec2c 18bd e9cd e13c 1167 30bd 2d4b 7a3c
000001c0: 12dd da3c 603e 9dbd 636c cd3c c0a1 083d
000001d0: ad1b 093d 4302 f9bc 1463 7cbd 2e47 0bbc
000001e0: d634 013d 1144 04bd 59b0 c53c 8eba 6f3d
000001f0: ebb0 4dbd 710c 6d3c d8de 073d dc7f fc3b
00000200: 4567 7239 aec7 af3b 8ed3 7fbd de34 fe3b
00000210: e13d 543d 299a c63d 9610 7b3d 8586 333d
00000220: a6b7 fe3c a38c f3bc 0fef 9cbd a50b 97bd
00000230: 46b5 d63d 36ed 2b3d 227b 2abd 53eb 263d
00000240: eea4 7e3d c81a b83d dc6e a13d c8b1 633d
00000250: 1347 d6bc f21d f5bc aec2 893d 2430 1d3d
00000260: c14a 18bd 52f9 a43d a70a 3d3d 80bf 253d
00000270: e4be 5abd 99a8 b03c b4d7 30bd 1e21 a33d
00000280: c284 0bbd 3e70 b83c 8f99 ec3b 44cf 1c3d
00000290: 7d8e 1abd df51 0a3d d72b 7ebd ee14 d43c
000002a0: de76 46bd c83d bbbd e68e 79bd 9dc6 863d
000002b0: 209c 4a3d 8984 a63d 2949 863d fc7a 8dbd
000002c0: 9e6f 99bd cbbc 2abc b115 57bd 9195 613d
000002d0: 950f 79bd 61c9 10bd 3ab2 92bd b446 35bd
000002e0: fc0a 953d b15f 763d 082e 7c3d b7b7 603d
000002f0: 6fb7 783d 9c8e 5bbc af25 473d f8ce b83d
00000300: 8f4f af3c a080 b43d 48c8 263d 9d45 633d
00000310: 3653 28bd 0ee1 583d 027f 443c 235d 4dbc
00000320: 8f47 4dbd 7ccd 29bd 040e 89bd b560 823d
00000330: e2fb 973d d6bd b2bc ad69 4bbd 0d0b 5c3d
00000340: f554 7a3d 017f ed3b 017b 3abd 86a9 9d3d
00000350: 2217 f13c e6f6 8bbd 28f0 b43d 3621 893d
00000360: fbaa dfbc 0555 443d 3acc 4bbd 0c93 55bc
00000370: 8c12 a93d abee ee3b 6378 8bbd 6959 d4bc
00000380: 74af 0cbd 5b16 ecbc dfba 373c 9c5f b93d
00000390: e61f f23b b390 65bd 484a 313b 5413 4f3d
000003a0: 87b0 6f3d 7438 7bbd dc52 04bb e60b 8cbd
000003b0: 0874 fbbc 9e75 f83c 27bc 83bd ac9c 163d
000003c0: 1c73 833d 7722 0b3c 9159 6abd 92b4 ffbc
000003d0: 324c 133d 0684 84bd 4cb1 933d 5d45 9dbd
000003e0: 4062 b4bd 626d acbd f14d cbbc 7a51 483d
000003f0: 7143 b9bd 96ee a43d 636b 04bd 3197 013d
-0.06051639 -0.00595436 -0.042930014 -0.030268956 -0.057985067 0.042732485 -0.04591974 0.015416571
0.0022852395 0.06634908 -0.056053374 -0.053154413 -0.03990718 0.03670178 -0.017202105 0.097577624
0.025397433 0.002445776 0.0054167723 -0.024406752 0.0011176902 -0.025675325 -0.008393411 0.00033964854
-0.049387965 -0.035190523 0.074548535 -0.08003792 -0.012206518 0.08085114 0.02355119 0.020133935
-0.091116115 0.038625002 -0.064841755 -0.026931694 -0.029742843 -0.016418621 -0.008069033 0.068278216
0.03223786 0.066203356 0.06421032 -0.066293836 0.03593067 -0.05487816 -0.04671486 0.03460095
0.016269542 0.06574336 -0.02038356 -0.0068252254 0.057525262 -0.08182042 0.074082784 -0.06180769
0.007961804 -0.040561516 -0.042093184 0.0024977154 0.05859243 -0.015473869 -0.0447321 -0.023232805
-0.087053925 0.031075612 -0.048980467 -0.040170323 -0.05908361 0.03280022 0.041058242 0.058285955
0.06316665 -0.047443155 -0.0013551574 0.0343897 0.096397184 0.018648084 -0.04402464 -0.036113102
-0.08590851 0.00541266 -0.04924812 -0.052781276 0.06749332 -0.064037494 -0.013619664 0.03043214
-0.0047222306 -0.048143417 -0.065958746 0.074043326 0.01727724 0.06869584 -0.018339613 0.025014712
-0.020017598 -0.007693313 -0.04535786 0.030559713 0.054842025 0.024507299 -0.029057974 -0.05400968
0.06963621 -0.06149717 0.04949087 -0.040051382 -0.037152216 0.027564006 -0.04306704 0.015276712
0.026716743 -0.07677913 0.025076097 0.03335738 0.03347366 -0.030396586 -0.061617926 -0.008500857
0.03154453 -0.032291476 0.02413194 0.05852752 -0.05021755 0.014468298 0.033171505 0.0077056717
0.0002311739 0.00536438 -0.062457614 0.007757767 0.051816825 0.096973725 0.061295114 0.04382946
0.03109343 -0.029730147 -0.07662784 -0.07375268 0.10483794 0.04197427 -0.041621335 0.040751766
0.062169008 0.08989483 0.07882473 0.055589467 -0.026156938 -0.029921506 0.06726585 0.03837599
-0.037180666 0.080553666 0.046152737 0.04046583 -0.053404704 0.021564769 -0.04317446 0.07965301
-0.034062155 0.022514459 0.007220454 0.0382836 -0.037733544 0.033769485 -0.062053528 0.025888886
-0.048453204 -0.09142643 -0.060927294 0.06580851 0.0494653 0.08130748 0.06556923 -0.06908223
-0.074919924 -0.010420988 -0.05251092 0.05507428 -0.060805876 -0.0353483 -0.071629 -0.04425688
0.07277486 0.060149852 0.061567336 0.054862704 0.06072181 -0.0134007 0.048619922 0.09023851
0.021400241 0.08813596 0.040718347 0.05548631 -0.04109498 0.052949004 0.011993172 -0.012534413
-0.05011707 -0.04145573 -0.066921264 0.06366102 0.0742109 -0.021819036 -0.049661327 0.053721476
0.061116178 0.007247806 -0.045527462 0.0769835 0.029429976 -0.068342015 0.08834869 0.066957876
-0.02730321 0.047932643 -0.049755313 -0.013035547 0.08255491 0.007291635 -0.06810071 -0.02592154
-0.034347013 -0.028819254 0.011213987 0.09051439 0.0073890565 -0.0560462 0.0027052332 0.050555542
0.05851796 -0.061333135 -0.002019099 -0.06838207 -0.030694976 0.030329522 -0.064323716 0.036770508
0.0641844 0.008492104 -0.057214323 -0.031214032 0.035961337 -0.06470494 0.07211551 -0.076792456
-0.08807802 -0.084193006 -0.024817439 0.048905827 -0.090460666 0.08053319 -0.032328974 0.031638328

layers.1.fc.bias f4 [64]
00000000: 5727 a33d 251a b83b 2df4 7bbd 1736 27bc
00000010: 624b c53c 4e8d 3fbd b36f b43c f7b1 fa3c
00000020: 2a7c 68bd c2f2 c03d 0165 063d f14f 36bc
00000030: 35ac aa3d a2d7 2bbd 2bbd 113d cd56 433d
00000040: c7cd afbd 3b34 46bc 3017 05bd 9323 8fbc
00000050: 34ab 30bd 9c90 d2bc ade3 62bc 9b94 793d
00000060: 8361 e43b 8a6d b8bd 5227 3cbc 010a 7abc
00000070: eb5d 7a3d d9c9 883d 22de c53d 6f03 99bd
00000080: ee6a 943d d615 193d 87a1 79bd 866f 82bd
00000090: c0fd 2abd e2a0 043c f0e8 07bd a5d5 61bd
000000a0: f6b5 7ebd d8d3 a93c 2a81 ce3b 38c9 b1bd
000000b0: 4ef6 98bd a48f 5c3c 28e8 8b3d 61ba f0bc
000000c0: d02e 5fbd ee49 253c af44 86bd 4301 89bd
000000d0: f468 333d 192c d2bb aca9 36bd 45da e33c
000000e0: 1f54 873d 3877 4abd 9a95 473b c826 b9bb
000000f0: 0d42 f7bd 542d c73d 15e7 e7bd 3a2c 1abd
0.07966488 0.005618351 -0.06151216 -0.010205767 0.024083797 -0.046765618 0.022025919 0.030602438
-0.056759037 0.094213024 0.03281117 -0.011127458 0.08333627 -0.04195369 0.035580795 0.0476902
-0.08584171 -0.012097414 -0.032492816 -0.017473018 -0.043132022 -0.02570372 -0.013848227 0.060932737
0.006969632 -0.09005268 -0.011483984 -0.015261174 0.061124723 0.066791244 0.09661509 -0.07471358
0.07246958 0.03737434 -0.06094506 -0.06368928 -0.0417459 0.008094998 -0.03318113 -0.055135388
-0.06218525 0.020730898 0.0063020186 -0.086809576 -0.07468854 0.013461981 0.0683139 -0.029385747
-0.054488003 0.010088427 -0.06556069 -0.06689694 0.043801263 -0.0064139483 -0.044595405 0.02781404
0.06607842 -0.049430102 0.003045416 -0.005650375 -0.12073145 0.097254425 -0.11323372 -0.037639834

layers.2.gsds.0.weight f4 [2, 64]
00000000: 0da2 833d ac41 d73d 15eb 64bd ff57 f53d
00000010: 1115 50bc 8d72 e9bd f642 cebd 94ee 55bd
00000020: a898 52bc cd8b fc3d 9ba7 6fbd f45d 93bc
00000030: 8284 d23d be35 efbc 7d5a 903d a674 5abb
00000040: a490 81bd 8564 babd ecf4 eb3d 6a03 a6bd
00000050: 7ed0 d73b e76d 3a3d 35a4 1a3c 0693 a1bc
00000060: 02b6 12bd 8752 5abd 2954 7e3d 60c9 53bd
00000070: 0606 5b3d a804 3e3d cfbc 353d 75c9 94bd
00000080: 7a33 bebd 26ad 8ebd e362 093d 5141 723c
00000090: 6cc4 e93d eccb a33d 1b0a 5dbd 7175 b93d
000000a0: 926a 8bbd 8eea 2abd 4304 d83d e274 d1bd
000000b0: 1503 39bd 6410 ccbd 66bf 3f3d 236f d53d
000000c0: 5fa7 eb3d c146 3dbd d35e c3bd 9b1c 6f3d
000000d0: da4e 41bd d333 4ebd c11f b4bd 812b b33d
000000e0: 6b1b 8dbc 20f6 513c d28d f5bc 3eb8 263c
000000f0: 53ee 9bbd ffea 053e 8c33 d4bd 5b38 953a
00000100: c8eb 76bd 4ce4 bebd 2c76 3c3d f7bd cb3d
00000110: 09fd 913d f4af b53c 8b9d a13d 0236 523d
00000120: b335 61bd 4533 7dbd 1d73 4b3d b43b a83d
00000130: b113 d63d 3261 4d3c f53b e63d 38a5 bebd
00000140: 8ca3 fd3c 0b36 e73d ed18 31bb be79 ba3d
00000150: 84d4 ea3d 112e dabd 78d3 813d 33a0 993d
00000160: 6b1d 6e3d d8cd 8b3d 0d22 d33d fea1 763d
00000170: c9f5 a43d 0247 02be 486c 0dbe 3e6c 363d
00000180: 0f0e 193e 332e 5fbd 1473 e13d ba14 3bbd
00000190: 79d6 873d a1ff 7cbc c1a8 873d 6aff 5ebd
000001a0: fe9f 00be 6b02 983d 1719 56bd d3f9 903d
000001b0: 4902 083d 31b0 12bd aabe 0b3e 420b e53d
000001c0: 3e10 45bd 2265 4f3d 5cd5 313d 5c6a c7bd
000001d0: 6d46 323c 7e2c f9bd 2936 64bb b8c8 04be
000001e0: a26e c63d cfba 973d 14ab f23d 4a82 a03d
000001f0: a897 31bd 863f 663d 844a 3a3d e57f 713d
0.06427393 0.10510573 -0.055888254 0.119796745 -0.012700335 -0.11398802 -0.100713655 -0.05222948
-0.012853779 0.123313524 -0.05850945 -0.017989136 0.1027918 -0.029200431 0.07048509 -0.0033333688
-0.06326416 -0.09101204 0.115213245 -0.0810612 0.0065861335 0.045514967 0.009438564 -0.019723427
-0.035818107 -0.05330136 0.06209198 -0.051705718 0.05347254 0.04639116 0.044369515 -0.072649874
-0.09287162 -0.06966619 0.03354157 0.01478608 0.114144176 0.079978794 -0.053964715 0.09055603
-0.06807436 -0.041727595 0.10547688 -0.10227372 -0.045168955 -0.09964064 0.04681339 0.10421588
0.11506533 -0.046210054 -0.09539571 0.05837689 -0.04719434 -0.050342392 -0.08795119 0.08748532
-0.017224988 0.012815028 -0.029974852 0.010175763 -0.07613816 0.13077925 -0.10361394 0.0011384593
-0.060283452 -0.09320888 0.046011135 0.09948342 0.07128341 0.022178628 0.07891377 0.051321037
-0.054982852 -0.061816473 0.049670327 0.082145125 0.104529746 0.01253538 0.11241905 -0.09308857
0.030961774 0.11289605 -0.0027022914 0.09105252 0.114663154 -0.10653318 0.063391626 0.07501259
0.058133524 0.06826371 0.10309229 0.06021308 0.08054692 -0.127224 -0.13810837 0.04453682
0.14946769 -0.05448742 0.110082775 -0.045674063 0.06632704 -0.015441806 0.06623984 -0.0544428
-0.12561032 0.07422336 -0.05227002 0.070789 0.033205304 -0.03581256 0.13646951 0.11183788
-0.048111193 0.050633557 0.043416366 -0.09737083 0.010881049 -0.12166689 -0.003482232 -0.12967193
0.0968907 0.07408678 0.11849037 0.07837351 -0.04335752 0.056212924 0.04548122 0.05895986

layers.2.gsds.0.bias f4 [2]
00000000: 8efb 123d d0f9 f53d
0.035884432 0.120105386

log_envelope.log_envs.0.weight f4 [2, 1]
00000000: c279 303f 3664 2f3f
0.6893579 0.68512285

exp_avg f4 [64, 2]
00000000: c0fc 1833 94d8 c7b4 8469 20b4 c3d2 acb4
00000010: a045 9b34 1720 0f35 d666 9c32 9afb 27b5
00000020: 4fa2 9f34 7080 2735 5207 4cb4 4183 8434
00000030: 1e57 d8b3 334e a234 7405 0eb3 192e 3fb3
00000040: d914 93b3 cab2 ddb2 cc6d a832 05c2 07b5
00000050: 16ab ce33 b40f 0235 5f59 25b3 cfca 7eb3
00000060: 1805 06b5 67f8 96b5 62f1 ca34 e5e4 c334
00000070: 329b 70b4 5243 feb4 b8b9 7a33 0590 d033
00000080: 459e b3b3 5514 8e34 949b ed34 6709 6d34
00000090: fb2b a934 ff17 d032 3e11 6732 41e4 5335
000000a0: 2e00 7134 3d2e 40b3 635a 0db5 5f1f 03b5
000000b0: d2e8 8732 3764 a9b3 fbac edb4 836f 2bb4
000000c0: 6859 6fb1 acff 7734 66fd 1234 f63e f5b3
000000d0: c3a3 9334 7ea3 bab4 b8f0 18b5 36f8 cdb4
000000e0: 3f5b 9ab4 9d26 b7b4 549a f7b4 7955 86b4
000000f0: 25ad 4e34 f9db 1534 31af 53b4 b9e9 2e34
00000100: 02b6 8a33 3bdd 3235 f348 d234 3fc4 6d35
00000110: 004d 86b4 636e 13b4 fe47 b7b4 919f 77b4
00000120: b319 0c33 5db3 e6b4 cff9 0434 d9b9 63b4
00000130: e415 0335 2abb ab34 99e1 c833 7c7a 07b5
00000140: 91a2 2cb5 7ae5 0bb4 0ad3 2234 d4b6 7534
00000150: cda6 a7b4 fe69 79b5 603b 4034 0c71 4535
00000160: a398 b932 7a4c b834 3e4c 9fb3 fcd8 b534
00000170: 577e f2b4 3733 e7b4 6491 8933 ee12 0bb5
00000180: 4521 93b3 bbc9 09b5 c569 d9b3 b049 0c35
00000190: fd83 2331 6dfb 8234 a30c ccb4 3d51 f6b4
000001a0: 9a25 cdb1 2e27 6434 c1bd f4b4 4a64 4834
000001b0: 278d f1b3 4071 aa33 8abe 9f34 11c4 b633
000001c0: 855c afb4 9a14 8db4 7c09 b734 7642 ce34
000001d0: 6949 8c34 ab18 f434 c7f3 ebb3 eb2f 05b4
000001e0: 311a fa33 81e0 0335 4979 ecb4 110e 6cb5
000001f0: f8f6 6eb4 7df4 0a34 f8c6 64b4 da7f 60b4
3.5620133e-08 -3.722422e-07 -1.4939548e-07 -3.2190846e-07 2.892166e-07 5.331835e-07 1.8207555e-08 -6.2578476e-07
2.9734153e-07 6.239925e-07 -1.9001644e-07 2.4682416e-07 -1.007413e-07 3.023175e-07 -3.306691e-08 -4.451258e-08
-6.849013e-08 -2.580909e-08 1.9607704e-08 -5.0573755e-07 9.623743e-08 4.8451625e-07 -3.849834e-08 -5.9323437e-08
-4.99263e-07 -1.1248165e-06 3.780106e-07 3.6488123e-07 -2.2408202e-07 -4.736017e-07 5.837657e-08 9.711952e-08
-8.364126e-08 2.6464355e-07 4.4257888e-07 2.2075766e-07 3.1510703e-07 2.4225299e-08 1.344989e-08 7.893578e-07
2.244494e-07 -4.4745537e-08 -5.2658123e-07 -4.8846954e-07 1.5821943e-08 -7.887905e-08 -4.427055e-07 -1.5966184e-07
-3.48299e-09 2.309668e-07 1.3689495e-07 -1.1420154e-07 2.7500036e-07 -3.4764156e-07 -5.6974704e-07 -3.8364823e-07
-2.8751126e-07 -3.41145e-07 -4.6119624e-07 -2.5021635e-07 1.9248235e-07 1.3956732e-07 -1.971464e-07 1.629004e-07
6.459233e-08 6.66321e-07 3.9168626e-07 8.8574956e-07 -2.501547e-07 -1.37306e-07 -3.4138787e-07 -2.3061718e-07
3.2619663e-08 -4.2971342e-07 1.2384338e-07 -2.1208633e-07 4.883316e-07 3.1987412e-07 9.354262e-08 -5.046966e-07
-6.431156e-07 -1.3028867e-07 1.5164201e-07 2.2883916e-07 -3.1227538e-07 -9.291397e-07 1.7902994e-07 7.3552724e-07
2.1606246e-08 3.4328315e-07 -7.417883e-08 3.3871754e-07 -4.5167937e-07 -4.3064367e-07 6.406006e-08 -5.180908e-07
-6.8512726e-08 -5.1330034e-07 -1.0124089e-07 5.2261294e-07 2.3794648e-09 2.4397323e-07 -3.8007155e-07 -4.588018e-07
-5.97056e-09 2.1248408e-07 -4.5586606e-07 1.8662936e-07 -1.12481125e-07 7.936842e-08 2.9754693e-07 8.5107e-08
-3.2663607e-07 -2.6278286e-07 3.4093307e-07 3.8418847e-07 2.6130445e-07 4.546649e-07 -1.0987383e-07 -1.2404023e-07
1.16462964e-07 4.9128e-07 -4.4046672e-07 -8.793732e-07 -2.2255324e-07 1.2941196e-07 -2.1306539e-07 -2.0908138e-07

exp_avg_sq f4 [64, 2]
00000000: 4b5b bc2c c8bd ad2f 2b09 8c2e 3e30 5a2f
00000010: e1eb a22f 6408 4130 db1d d42c e2e1 7530
00000020: 5f23 7f2f e534 8330 6698 be2e 15a1 162f
00000030: 1864 1e2d f03a 9c2f 7aca 652c 086a bf2c
00000040: f3be 9d2c 06b4 272b b132 952d 8b80 3430
00000050: 497c 6e2e 7cbf 0c30 f1a1 152b c31e d32c
00000060: 9a91 c02f 0c24 3e31 a56d 0030 c909 0730
00000070: bd76 0d2e 46c2 0e30 5158 3e2d 973a 992d
00000080: facf 922b 618f 512f f4c7 342f f1ea dc2e
00000090: 403b f02f 5c02 242c 7c92 f52d 6dc7 cf30
000000a0: dbc3 052f 3836 862c 26d9 0e30 a4aa 4930
000000b0: ab7a 3b2c 58d5 ac2d 53e4 3c30 495a 622e
000000c0: 2252 9c2a c587 112f 9241 072c 1556 702e
000000d0: f919 be2e ea12 9b2f 01f2 4030 de24 d22f
000000e0: 4ff0 412f b29a 872f 2c0f 1130 ead3 c82e
000000f0: 2734 4a2f fcc2 632e 9d24 e42e 808a 802e
00000100: f654 682d e8c3 a930 682d 9c2f 8706 fb30
00000110: 0602 1d2f f8d0 062e 57ff 0c30 6be4 0f2f
00000120: b9f6 692d b7e2 e12f 1e37 0c2b f5f5 9e2e
00000130: dd8b ef2f 4fa0 a42f a35c 332e cac1 1e30
00000140: 44ca a930 2a90 412f a183 812d 1eb1 592f
00000150: b936 872f aeb3 0231 0f2b 032f 4bfc ba30
00000160: 1620 4b2d ef54 8f2f d292 9f2b 89bd 972f
00000170: 7b8d 0c30 774e 0530 a788 972c b974 5330
00000180: 4b51 562e 54cb 3330 9382 ac2d 0265 3630
00000190: 2297 c52c e24a 032f 313b 2630 4937 1330
000001a0: 2e0e a42d 7e7d 282f 8807 3a2e a27d 432f
000001b0: 30ec 092e 1ee9 892d e699 762f d214 662d
000001c0: 2dbc 762f 91e5 4c2f e64f 6e2f 85ca 0430
000001d0: 00bb 482f 419b 0930 bad0 c22d 1474 192e
000001e0: 55bc 422c 2ae9 0e30 c89d 222f 38c6 0231
000001f0: 655f 8f2e ca59 102f 6467 8d2e 3f87 cd2e
5.353417e-12 3.1603364e-10 6.3680915e-11 1.9844124e-10 2.963523e-10 7.0224915e-10 6.028717e-12 8.945148e-10
2.3204681e-10 9.546538e-10 8.667271e-11 1.3699648e-10 9.0034855e-12 2.8418112e-10 3.2655254e-12 5.4403183e-12
4.483408e-12 5.958015e-13 1.696185e-11 6.566629e-10 5.4225322e-11 5.120382e-10 5.316017e-13 6.000396e-12
3.5028053e-10 2.766913e-09 4.6721943e-10 4.912662e-10 3.216515e-11 5.193538e-10 1.081986e-11 1.7420105e-11
1.0431649e-12 1.9059378e-10 1.6441942e-10 1.0046176e-10 4.3697845e-10 2.3307111e-12 2.7918327e-11 1.5117912e-09
1.2165861e-10 3.8145286e-12 5.1967886e-10 7.336587e-10 2.6642393e-12 1.964888e-11 6.871847e-10 5.146664e-11
2.7768158e-13 1.3235908e-10 1.9221053e-12 5.464614e-11 8.644813e-11 2.8207775e-10 7.01931e-10 3.8224973e-10
1.7638623e-10 2.4666275e-10 5.2772253e-10 9.1325905e-11 1.8390321e-10 5.1787005e-11 1.03747434e-10 5.8453686e-11
1.3206538e-11 1.2352048e-09 2.8408498e-10 1.8264509e-09 1.4279786e-10 3.0653674e-11 5.1294563e-10 1.3086925e-10
1.32993e-11 4.1088352e-10 4.981448e-13 7.228699e-11 4.3573226e-10 2.9945332e-10 4.0782166e-11 5.7755456e-10
1.2353856e-09 1.7604465e-10 1.4724057e-11 1.979896e-10 2.459524e-10 1.9019626e-09 1.1929678e-10 1.3604987e-09
1.15463385e-11 2.6071897e-10 1.133838e-12 2.7601413e-10 5.113276e-10 4.8496623e-10 4.3068496e-12 7.6927226e-10
4.873017e-11 6.540877e-10 1.9612123e-11 6.6354755e-10 5.615856e-12 1.1940984e-10 6.0474564e-10 5.3556853e-10
1.8650938e-11 1.5324095e-10 4.2298193e-11 1.777978e-10 3.135997e-11 1.5678622e-11 2.2428245e-10 1.3078609e-11
2.2440423e-10 1.863525e-10 2.167436e-10 4.830912e-10 1.825633e-10 5.006094e-10 2.214794e-11 3.489127e-11
2.7673603e-12 5.1990645e-10 1.478987e-10 1.9030164e-09 6.5198326e-11 1.3128623e-10 6.4303035e-11 9.346345e-11

exp_avg f4 [64]
00000000: c139 2fb3 6909 81b1 cda2 f5b2 d973 fa33
00000010: 4f04 2f33 0e84 d0b2 4cd5 c932 4bfb 1333
00000020: 42a7 95b3 7749 b8b4 d832 f430 12f7 43b3
00000030: 84da 1932 e93c c8b3 82c6 0832 08eb 2534
00000040: 1353 2bb2 0d78 6a34 091a 2934 0b8f 2334
00000050: 268d e0af 2501 d334 f260 9d33 8b9c c733
00000060: e3fd 21b2 ae12 0b34 c5d1 e332 2ddd b031
00000070: 8db0 3eb4 11db 0fb1 5563 1eb4 5e0e a133
00000080: 507e 0434 98cf 9833 e14c 7533 054f 2634
00000090: d7b0 2634 c893 f233 a61e 36b4 4f71 abb3
000000a0: 68e4 8234 b6ff f8b3 c8fd 66b3 698b c8b3
000000b0: d80a 9633 73d2 9932 a726 f632 9a3a 0734
000000c0: b3f9 a032 e177 51b3 7cbf 2532 195e 3433
000000d0: ff07 d6b3 4dfb dcb4 c9ba deb2 2957 e133
000000e0: bba3 49b3 b6c6 b9b3 7d31 04b3 8657 0b33
000000f0: 9c6a 0333 9a49 0b34 b0cc 8b33 646c 51b3
-4.079789e-08 -3.755464e-09 -2.8595787e-08 1.1662605e-07 4.074928e-08 -2.4274438e-08 2.3496476e-08 3.4454654e-08
-6.968777e-08 -3.4326123e-07 1.7767787e-09 -4.5626685e-08 8.955457e-09 -9.324305e-08 7.961377e-09 1.5452326e-07
-9.972399e-09 2.1836622e-07 1.5748823e-07 1.5232597e-07 -4.0845655e-10 3.9302645e-07 7.3285165e-08 9.2951346e-08
-9.429161e-09 1.295218e-07 2.652167e-08 5.147419e-09 -1.7759358e-07 -2.0933764e-09 -1.4751033e-07 7.49976e-08
1.233941e-07 7.115813e-08 5.711343e-08 1.5488702e-07 1.5524289e-07 1.12958844e-07 -1.696122e-07 -7.983419e-08
2.4380574e-07 -1.15949135e-07 -5.378186e-08 -9.338584e-08 6.986892e-08 1.7907245e-08 2.8655746e-08 1.2594174e-07
1.8740002e-08 -4.8770634e-08 9.647803e-09 4.1995097e-08 -9.966606e-08 -4.116104e-07 -2.5929142e-08 1.0493233e-07
-4.694787e-08 -8.650879e-08 -3.0778654e-08 3.244306e-08 3.0597775e-08 1.297216e-07 6.509924e-08 -4.8760185e-08

exp_avg_sq f4 [64]
00000000: 0cd8 452c 79ca 3b2d c46e 772b 5ba6 b22d
00000010: 3a8c 7f2c 8b53 d02b fb2b 672e 0fcd 152b
00000020: 7830 192d 0c07 c82f 8642 a92c 4147 b52c
00000030: 35ec b42b 16c8 172c f757 b12c 78c7 8e2e
00000040: 176f b32c 5cd2 412f d87e e92e e577 e92e
00000050: 5457 912b 0d2b d02f ff8b 2b2d 6e02 022d
00000060: 4f8a 0b2a 8182 1c2e 7a82 412c 6334 ac2c
00000070: 771b 8e2e 9525 662d 5a0f e92d 0326 7c2d
00000080: 61a8 bc2e a54b 3b2d 5716 812c 7813 572e
00000090: 39ca b92d 4323 1c2d 7907 ce2e 52af 842d
000000a0: bdf0 c52e a13d 202d c8cb ad2c 0258 e22d
000000b0: 25cb c52d 373e 5b2c 376c ba2d 477b ea2d
000000c0: 79fe 972c 9f07 232d 8db1 f12b 94cb e02c
000000d0: 67c9 a62b af78 dc2f 011a 1a2c 625b 0e2e
000000e0: 597e 6f2d f766 2c2b dbaf de2c 5e07 3e2b
000000f0: 701a 0c2c 1687 532e 0274 762e 47d8 d82c
2.8115314e-12 1.0674677e-11 8.7905746e-13 2.0310134e-11 3.631552e-12 1.4802477e-12 5.256238e-11 5.322001e-13
8.707805e-12 3.6384795e-10 4.8106545e-12 5.15224e-12 1.285533e-12 2.156946e-12 5.0404086e-12 6.492845e-11
5.0998194e-12 1.7627982e-10 1.0618145e-10 1.0616911e-10 1.0327108e-12 3.786557e-10 9.75131e-12 7.390184e-12
1.2393665e-13 3.5586204e-11 2.7499379e-12 4.89435e-12 6.462291e-11 1.3082331e-11 2.649585e-11 1.4332982e-11
8.57916e-11 1.0646516e-11 3.6688807e-12 4.8902632e-11 2.112187e-11 8.875403e-12 9.369123e-11 1.508452e-11
9.0012865e-11 9.108631e-12 4.93958e-12 2.5732309e-11 2.2486521e-11 3.1156308e-12 2.1193809e-11 2.6657466e-11
4.3199303e-12 9.2671695e-12 1.717336e-12 6.3890646e-12 1.185091e-12 4.0103518e-10 2.1899151e-12 3.2368226e-11
1.3613632e-11 6.124957e-13 6.3291434e-12 6.7511784e-13 1.9909872e-12 4.8095826e-11 5.603696e-11 6.163101e-12

exp_avg f4 [64, 128]
00000000: 0407 e0b3 ada3 3934 24be 72b3 4135 17b4
00000010: 48e4 06b3 7af7 d832 7d06 92b2 6245 55b2
00000020: 1efc f5b3 ba7a 3733 865c 1eb4 4efa efb3
00000030: ac80 c8b2 574f 1134 c058 18b3 2963 2bb4
00000040: 81b8 d133 6aa0 5834 3280 e5b3 b30b 8eb3
00000050: bf3b b333 7526 0f34 6702 0934 f3bb cc32
00000060: 68da 0730 9984 41b4 8910 f7b2 cb4b b333
00000070: c9f3 f833 7c7d ec33 6911 68b3 2a1e 24b3
00000080: ab10 2d33 8f51 26b3 e515 e831 76b7 7833
00000090: 63c4 e3b3 acad 0bb4 079e 1034 ab01 d233
000000a0: 33b2 d5b3 4158 3234 5a20 3932 f947 b333
000000b0: eb0a 0034 1fae f3b3 938a 1733 528e cab2
000000c0: e0ba 89b2 2dc1 0534 0ab7 38b4 be55 8f33
000000d0: 7852 20b3 c2e4 d533 c7b6 1cb3 5498 d5b3
000000e0: 91b4 0eb4 9a89 2e34 d98d 89b2 cfaf f8b2
000000f0: 6138 dd32 50dc a3b3 f7e9 0eb3 758a f232
00000100: 1923 c2b3 b2cd 2f34 21bb 9832 9bb6 14b4
00000110: 1cfb a0b2 ae18 ba33 c67e 5234 c17d 7133
00000120: 65dd 3cb4 be19 1734 1a82 48b4 a2c8 c0b3
00000130: c997 a4b1 cbb8 d831 b39c e733 09ed a0b3
00000140: 35c8 ef33 04b9 5e34 9373 81b2 f301 1db4
00000150: 182b 9a33 ea3e 0734 50b0 0834 9b69 0eb4
00000160: 023a 9433 179f 48b4 df08 a8b3 7d43 24b3
00000170: 7802 8d33 2696 0734 08c8 17b4 4693 5433
00000180: 6eac 9fb3 8480 35b3 24eb 23b4 dd1c b533
00000190: 968d 3fb4 8ab4 68b4 d3b6 ea33 9492 af33
000001a0: 9e47 0832 3af6 ca32 ed9d 6db2 e445 dc33
000001b0: 948f 2333 eed5 22b4 ce27 13b4 aea3 5534
000001c0: 3832 efb3 a0ee 2c34 620b 2fb4 0b18 cf33
000001d0: 458b e233 2c64 3734 35e9 b9b2 688e 43b2
000001e0: 0a54 4ab3 1c9c e832 d6c7 fd32 3e18 9bb3
000001f0: becb 60b3 6935 3431 04dc 5034 eaeb b133
00000200: bfea 58b4 4425 a334 8945 beb3 bc07 84b4
00000210: f498 b7b3 6ed6 8c33 f58f 8d33 5b62 acb1
00000220: 1dac 79b4 6d74 0034 40ee 94b4 c2f0 30b4
00000230: 8680 0232 d603 7234 3a0f 7a32 d847 8eb4
00000240: 1023 2a34 77ba c134 8c12 0fb4 6468 25b4
00000250: 1a23 0434 6b71 5c34 18ce 6234 16d1 25b3
00000260: dda5 8a32 6601 adb4 efd6 52b3 4cf8 a233
00000270: 57da 7234 d0ba 4d34 b2e3 14b4 beea 63b3
00000280: e326 c932 5578 b4b3 1515 9db3 7dc3 c433
00000290: 46d7 73b4 6bee 94b4 9a13 6534 db69 4e34
000002a0: 6563 33b4 db82 8534 4536 5f33 e2ee 1634
000002b0: fd45 7734 6fe6 62b4 6929 beb2 7dbb 6f33
000002c0: af33 97b3 ac10 8134 ac78 a5b4 729b e533
000002d0: 3faf f0b1 ae1f 6534 f01e f1b2 8455 13b4
000002e0: c7a9 4ab4 3b80 8e34 0e13 e1b2 5333 a8b3
000002f0: 0146 7db2 4d11 b9b3 6eb3 3433 7672 d733
00000300: 27b3 42b4 c346 9134 cc01 b232 d643 82b4
00000310: 9e11 8fb3 f218 2634 c6be d134 a424 cc33
00000320: da32 acb4 a662 8a34 6551 b2b4 a9ba 10b4
00000330: 74b1 1633 87b8 1e33 b0fb 7b34 9625 17b4
00000340: 1a7f 3434 37c1 c034 d2ce 3830 6ac1 90b4
00000350: 6695 e433 c9ed 5334 0d8e 5234 72a1 95b4
00000360: 2cff f633 e44a abb4 9e9b fcb3 0cf2 e7b3
00000370: 0ba2 2134 7750 5734 d135 8fb4 7d58 9b33
00000380: 2288 1cb4 68b4 bfb3 a540 aab4 1646 fc33
00000390: 4d19 b3b4 e9f9 d6b4 b09d 3f34 1cc3 3434
000003a0: 922c 6cb2 3dab 3133 7757 8732 6589 3334
000003b0: 61b3 e733 451f 8db4 aa13 9ab4 b226 d434
000003c0: 2b3d 61b4 f485 9534 aac9 91b4 340c 1a34
000003d0: 3fc0 5534 fe14 a534 31c8 d8b1 e6e3 01b2
000003e0: ee03 8eb3 cde6 8b33 c2a5 2e33 3dcc 18b4
000003f0: 36ab 0eb4 5653 0333 9088 d134 d447 4434
-1.0432089e-07 1.7289013e-07 -5.6517948e-08 -1.4082345e-07 -3.1406927e-08 2.5258249e-08 -1.6999588e-08 -1.2414008e-08
-1.14545614e-07 4.2719627e-08 -1.4748557e-07 -1.1174835e-07 -2.3341578e-08 1.3533041e-07 -3.5470975e-08 -1.596169e-07
9.765882e-08 2.0174926e-07 -1.0686962e-07 -6.614518e-08 8.346205e-08 1.3331903e-07 1.2759993e-07 2.3834195e-08
4.942309e-10 -1.8022764e-07 -2.8762104e-08 8.349124e-08 1.1592744e-07 1.1012432e-07 -5.4032544e-08 -3.821166e-08
4.029486e-08 -3.8724064e-08 6.754578e-09 5.7908856e-08 -1.0606234e-07 -1.3008565e-07 1.3468535e-07 9.7791904e-08
-9.951e-08 1.6609648e-07 1.0775773e-08 8.348429e-08 1.1924901e-07 -1.1347242e-07 3.528346e-08 -2.3580615e-08
-1.603388e-08 1.2456867e-07 -1.7202925e-07 6.674553e-08 -3.7327908e-08 9.960196e-08 -3.6487815e-08 -9.946294e-08
-1.329047e-07 1.6255072e-07 -1.6013404e-08 -2.8950948e-08 2.5753424e-08 -7.6303536e-08 -3.327474e-08 2.823547e-08
-9.040213e-08 1.6372977e-07 1.7780225e-08 -1.3850006e-07 -1.8740643e-08 8.665789e-08 1.9603894e-07 5.6226558e-08
-1.7589407e-07 1.4072336e-07 -1.8673782e-07 -8.9771916e-08 -4.790284e-09 6.307436e-09 1.0785279e-07 -7.493697e-08
1.1165722e-07 2.074267e-07 -1.5070134e-08 -1.4622474e-07 7.1790225e-08 1.2595743e-07 1.2730129e-07 -1.32632e-07
6.9023386e-08 -1.8684328e-07 -7.824723e-08 -3.8245606e-08 6.566273e-08 1.2627478e-07 -1.4135742e-07 4.949404e-08
-7.435379e-08 -4.225923e-08 -1.5266102e-07 8.4337195e-08 -1.783977e-07 -2.1672363e-07 1.092973e-07 8.175735e-08
7.932526e-09 2.3627866e-08 -1.3831124e-08 1.0257261e-07 3.808198e-08 -1.5165253e-07 -1.3704923e-07 1.9896717e-07
-1.11384395e-07 1.610556e-07 -1.6302286e-07 9.643562e-08 1.0549278e-07 1.7079645e-07 -2.1642885e-08 -1.1382873e-08
-4.7108223e-08 2.7079345e-08 2.9543951e-08 -7.2221596e-08 -5.2339367e-08 2.6223808e-09 1.9451551e-07 8.285117e-08
-2.0201968e-07 3.038823e-07 -8.860213e-08 -2.4592543e-07 -8.5494236e-08 6.5582626e-08 6.59201e-08 -5.0170406e-09
-2.3252547e-07 1.1963284e-07 -2.7740498e-07 -1.6478864e-07 7.596219e-09 2.2539402e-07 1.4555377e-08 -2.6501834e-07
1.584524e-07 3.6084722e-07 -1.332466e-07 -1.54048e-07 1.2306228e-07 2.0530358e-07 2.1122867e-07 -3.860722e-08
1.614074e-08 -3.2224779e-07 -4.9089916e-08 7.588878e-08 2.2617438e-07 1.9160075e-07 -1.3866409e-07 -5.3066053e-08
2.3417163e-08 -8.4037914e-08 -7.314717e-08 9.16252e-08 -2.2709455e-07 -2.774062e-07 2.1334418e-07 1.9223755e-07
-1.6706834e-07 2.486839e-07 5.197059e-08 1.4056744e-07 2.3029129e-07 -2.1131721e-07 -2.2137742e-08 5.5817043e-08
-7.0408866e-08 2.4040253e-07 -3.0821445e-07 1.0691919e-07 -7.0048425e-09 2.1338812e-07 -2.8070161e-08 -1.3721552e-07
-1.887448e-07 2.654286e-07 -2.6202112e-08 -7.8324454e-08 -1.4742455e-08 -8.617881e-08 4.2072706e-08 1.0032538e-07
-1.8132833e-07 2.705984e-07 2.0722744e-08 -2.4263744e-07 -6.662161e-08 1.546903e-07 3.906809e-07 9.506155e-08
-3.2074496e-07 2.577628e-07 -3.3214306e-07 -1.3478952e-07 3.508599e-08 3.695507e-08 2.346776e-07 -1.4076645e-07
1.6810046e-07 3.590337e-07 6.723272e-10 -2.6962817e-07 1.0644253e-07 1.9737412e-07 1.9609452e-07 -2.787088e-07
1.1501683e-07 -3.1905722e-07 -1.1762971e-07 -1.0800804e-07 1.5053244e-07 2.0052708e-07 -2.6674982e-07 7.233846e-08
-1.4578157e-07 -8.926946e-08 -3.1712003e-07 1.1747413e-07 -3.3359757e-07 -4.004244e-07 1.7845628e-07 1.6834787e-07
-1.3747142e-08 4.1366764e-08 1.5755843e-08 1.6720658e-07 1.07894046e-07 -2.6286048e-07 -2.8699043e-07 3.9516232e-07
-2.097701e-07 2.7850876e-07 -2.7155085e-07 1.4346807e-07 1.990711e-07 3.074892e-07 -6.3091865e-09 -7.560606e-09
-6.613105e-08 6.514674e-08 4.0663288e-08 -1.4230405e-07 -1.3287067e-07 3.0576608e-08 3.9028646e-07 1.8280053e-07

exp_avg_sq f4 [64, 128]
00000000: f2dd e32d 3f9b b62e ae50 142d 8801 502e
00000010: bdc4 352c b88e c52b 49c0 ac2b cc8e 062b
00000020: f1b3 072e 5f49 c22c 4901 612e 2937 0e2e
00000030: 5777 a92b 1c9e 2e2e 2a6b e12c 7a55 992e
00000040: 8468 ee2d bef0 dd2e 57e6 2e2e 998c 3a2d
00000050: e7d1 922d 9c70 4c2e 8211 4f2e e241 8f2c
00000060: 917f 4727 ec41 b82e d43a 232c c3a6 e52d
00000070: 3d0f 0d2e 8da3 222e cecc eb2c 755b 4d2c
00000080: 24bb ce2c b482 7d2c 25a9 742b 63b6 802d
00000090: f9ea e02d 3eef 2d2e 9903 502e 1174 c92d
000000a0: 0513 702d 0552 db2e 6de4 dd2a 04d7 8c2d
000000b0: d54c 0d2e ea4e 092e 1cbb 0f2d 671c 0d2c
000000c0: 2a5d 092b 4eb7 432e 053a b62e c1e0 542d
000000d0: a0bd f72c b8cb f72d b8c8 572c 0e44 012e
000000e0: 29bc 842e a86a a02e fae4 562b 4b29 032c
000000f0: c968 152c b137 982d 9070 6e2c 785a fc2b
00000100: a055 ab2d 15d3 d62e d2c5 892b e9bc 482e
00000110: da14 852b 2bfa ab2d d508 c42e 74cf 172d
00000120: d23a ae2e e2c3 882e db7f c52e 001b af2d
00000130: e541 f828 9329 a42b af13 c32d 44d4 832d
00000140: 6915 332e a89f 102f 3cc3 112c 5822 7c2e
00000150: c7c7 532d dbff 2d2e 326e 762e 6acf 212e
00000160: cf8e 6e2d 2145 f42e 23af 9f2d ecba 902b
00000170: d614 332d b8ea 7a2e f864 622e 1989 2e2d
00000180: b44c 822d ed86 972c 873d 612e 859d 042e
00000190: 55b8 ab2e 88f8 0c2f c023 032e eeed 8b2d
000001a0: e608 b22c da4d 282c e4f3 db2a e4df df2d
000001b0: df36 3f2c c6df 862e b0fc 2a2e c5f2 c92e
000001c0: 4603 142e 0544 c52e 6922 df2e b1ba f62d
000001d0: 16cc 252e 6bf5 cd2e ca09 8b2b e02e 222b
000001e0: c7b3 222d 3ef1 862b 01f5 182c 8bcb 5d2d
000001f0: 9c8e c92c dfb9 2028 3e0f bc2e d0b7 8c2d
00000200: 0288 d32e e138 942f 45d7 a22d 1dbb 1b2f
00000210: 0b0c a92d 6784 3d2d ef16 462d 8aed 0929
00000220: da95 0f2f d274 382e 8dbd 4c2f 571a 922e
00000230: 2d74 1e2b 8c78 d62e 96d6 9929 145f 472f
00000240: a94a a02e 4dc9 bd2f 8a45 832e b961 832e
00000250: 7864 142e 6a58 eb2e 5d5c 122f 9f05 8c2b
00000260: a066 7e2b 474f 9b2f c569 fa2c 5776 c62d
00000270: f0b5 032f cf77 fb2e 982c 4f2e 5f14 912c
00000280: 17d5 092c fcf1 962d 03d5 152d f9d1 272e
00000290: faef 042f 7a92 492f 7f54 fa2e 588f c02e
000002a0: ba9c 162e bc4a 672f f549 0c2d 4c0a 442e
000002b0: bafc 002f a175 f22e 1599 942a 1d6c 182d
000002c0: 3baa 5d2d 7447 382f af09 982f fe13 0a2e
000002d0: 22bd b32b 23d9 0c2f 50a7 a42b 64a9 602e
000002e0: 6fdc 002f f9cd 422f 6f4c f92b 0aa8 842d
000002f0: aa4e 372b 0671 ad2d 3831 a82c 767f e02d
00000300: a60f ac2e 0ce3 982f 4cf1 b62b 0670 172f
00000310: 2798 552d a165 852e 5bcf b62f 85a0 d12d
00000320: f6da 8d2f 4a2f 5c2f f842 9a2f 82c2 3b2e
00000330: 3fb2 942c 4916 e72a 46e8 f12e 66a7 622e
00000340: f10e d02e 3feb db2f 3c80 912b 4a33 502f
00000350: 8250 d92d a7e6 cf2e 8bb4 182f e4cb 322f
00000360: d069 202e 9d0e b52f 7a39 302e 50bd 8a2d
00000370: 097c 702e 82a4 222f d718 442f 0dda bd2d
00000380: d085 742e 37b1 a92d 4c0c 6e2f 9c9a 8b2e
00000390: 8e02 932f f810 e72f 918a a92e 2da7 942e
000003a0: 443b be2c 8265 fe2c eae0 a42b 95a1 8f2e
000003b0: 103c e22d cc66 472f dc71 3a2f 42ba ba2f
000003c0: de77 fe2e f4b1 922f b4c4 a02f 3ab7 872e
000003d0: d15c 0d2f ecc7 a12f a2ee 9f28 12ee e22a
000003e0: f12e a62d 1190 f82c 0833 852c 14a8 552e
000003f0: 7bac 302e d358 f12b 85e8 b12f 4af9 ad2e
2.5905476e-11 8.303979e-11 8.4307405e-12 4.7295085e-11 2.5830859e-12 1.4037304e-12 1.2274705e-12 4.7804534e-13
3.0855266e-11 5.5219575e-12 5.116022e-11 3.2336054e-11 1.2041296e-12 3.970345e-11 6.4067822e-12 6.972818e-11
2.7103882e-11 1.0092681e-10 3.9767602e-11 1.0604095e-11 1.6691494e-11 4.6484247e-11 4.70819e-11 4.071619e-12
2.7685952e-15 8.379061e-11 2.319635e-12 2.6108343e-11 3.2073223e-11 3.6979798e-11 6.7018396e-12 2.918302e-12
5.875649e-12 3.6026017e-12 8.692095e-13 1.4632911e-11 2.55702e-11 3.9548136e-11 4.729692e-11 2.2902598e-11
1.3646644e-11 9.9735366e-11 3.9415988e-13 1.6011643e-11 3.212793e-11 3.1220283e-11 8.1701555e-12 2.0053072e-12
4.880147e-13 4.4500674e-11 8.286708e-11 1.210071e-11 7.041215e-12 2.8171118e-11 3.066476e-12 2.939165e-11
6.036089e-11 7.2949036e-11 7.634584e-13 1.8639142e-12 2.123234e-12 1.7305131e-11 3.388432e-12 1.7930787e-12
1.9478474e-11 9.769089e-11 9.789342e-13 4.564252e-11 9.456006e-13 1.9551546e-11 8.914617e-11 8.62942e-12
7.9230525e-11 6.21936e-11 8.9812345e-11 1.9907187e-11 2.7562108e-14 1.166444e-12 2.2177675e-11 1.498724e-11
4.0718904e-11 1.3153445e-10 2.0714116e-12 5.732867e-11 1.2038321e-11 3.956289e-11 5.6031797e-11 3.6791382e-11
1.3560444e-11 1.1108115e-10 1.8153984e-11 1.0283697e-12 1.01795985e-11 5.705189e-11 5.147613e-11 9.921197e-12
1.4813352e-11 4.306658e-12 5.1213724e-11 3.015323e-11 7.8089236e-11 1.2821222e-10 2.9817704e-11 1.5908132e-11
5.060052e-12 2.3917452e-12 3.9071448e-13 2.5451592e-11 2.7173192e-12 6.1333646e-11 3.8877956e-11 9.183546e-11
3.365421e-11 8.9706055e-11 1.01469784e-10 2.804987e-11 3.769792e-11 9.365916e-11 9.879261e-13 5.7619014e-13
9.2485524e-12 9.588231e-13 2.1736504e-12 1.2607591e-11 5.7285964e-12 8.9220886e-15 8.551958e-11 1.5997786e-11
9.619329e-11 2.6961458e-10 1.8512867e-11 1.4163644e-10 1.9218424e-11 1.0772805e-11 1.1260089e-11 3.0626143e-14
1.3059012e-10 4.1940514e-11 1.8621034e-10 6.64399e-11 5.62941e-13 9.753007e-11 6.8317896e-14 1.8132723e-10
7.28922e-11 3.4521933e-10 5.969543e-11 5.974549e-11 3.3740538e-11 1.0702268e-10 1.3311437e-10 9.949158e-13
9.038135e-13 2.8250666e-10 7.11717e-12 2.2562547e-11 1.1979018e-10 1.1435441e-10 4.7105958e-11 4.1234095e-12
1.958716e-12 1.7160488e-11 8.5169675e-12 3.8157897e-11 1.2090587e-10 1.8332882e-10 1.1383693e-10 8.756612e-11
3.4245252e-11 2.1035879e-10 7.9745e-12 4.4574386e-11 1.1731319e-10 1.1025781e-10 2.6396303e-13 8.664206e-12
1.2600194e-11 1.6760088e-10 2.765552e-10 3.1395324e-11 1.277121e-12 1.2810068e-10 1.1699339e-12 5.1082152e-11
1.1719846e-10 1.7717373e-10 1.7713729e-12 1.5081287e-11 6.512383e-13 1.9718015e-11 4.7803116e-12 2.5522456e-11
7.824434e-11 2.7809965e-10 1.2998851e-12 1.3773169e-10 1.2141433e-11 6.066193e-11 3.3252942e-10 2.3831834e-11
2.5803332e-10 2.0025684e-10 2.806002e-10 4.2691635e-11 4.2262023e-12 4.1049306e-13 1.1000671e-10 5.153513e-11
9.461399e-11 4.000302e-10 1.0338462e-12 1.8935711e-10 2.4705796e-11 9.454242e-11 1.3888461e-10 1.6261442e-10
3.647377e-11 3.2934092e-10 4.0068816e-11 1.5772855e-11 5.4679847e-11 1.4792259e-10 1.7834921e-10 2.1583646e-11
5.5598026e-11 1.9291775e-11 2.1650343e-10 6.348452e-11 2.674096e-10 4.2030712e-10 7.7098446e-11 6.759957e-11
5.4067046e-12 7.230384e-12 1.1715327e-12 6.53159e-11 2.5719898e-11 1.8135465e-10 1.6957052e-10 3.3965547e-10
1.15718754e-10 2.6683689e-10 2.9243596e-10 6.171637e-11 1.285685e-10 2.9427782e-10 1.7756037e-14 4.031086e-13
1.8892861e-11 7.0645785e-12 3.785753e-12 4.8579876e-11 4.017096e-11 1.7148734e-12 3.2361328e-10 7.911412e-11

exp_avg f4 [64]
00000000: 6375 a1b2 eeaa 2633 ab9f 56b0 ca12 cc33
00000010: 3fee 8732 9ed4 80b2 d11d beb2 3967 89b3
00000020: 1383 d52f 2414 3c32 ad03 c6b2 7515 f5b2
00000030: d39f abb3 88a9 a8b1 b63c 2bb3 141a 8031
00000040: 4b63 48b2 a09e 89b1 07bc 2832 27c5 6a33
00000050: 10b0 8633 0ca1 3233 a24e 44b2 38eb efb2
00000060: 1ed0 c9b1 7787 beb2 c1ba b331 3014 10b2
00000070: 1ae0 a131 f0d4 03b3 441c e9b3 cb98 c2b2
00000080: a31b 74b3 f98b 452f 4476 e6b3 8728 0833
00000090: c8f6 e6b2 f29b 91b2 984e 06b3 4aac c7b2
000000a0: 7277 53b3 3367 3532 8280 b8b2 91c0 b5b2
000000b0: c07d 50b2 5a29 5833 d19e 7db3 c5b4 9d33
000000c0: 1ef3 0031 15ee 2b32 ce6f ccb2 3506 0bb3
000000d0: 46ba f330 3e1f 4833 1f5c e332 aeca 8432
000000e0: 6b8b 43b3 025d 0732 6ad0 8cb3 c9fc 9bb3
000000f0: 4224 fc31 e39f 35b2 07a2 37b0 c624 c0b2
-1.8796248e-08 3.8805346e-08 -7.807965e-10 9.502908e-08 1.582441e-08 -1.4997848e-08 -2.213247e-08 -6.398336e-08
3.8837608e-10 1.094762e-08 -2.3051905e-08 -2.8531511e-08 -7.99188e-08 -4.908717e-09 -3.9869256e-08 3.728255e-09
-1.1664109e-08 -4.0052583e-09 9.8216395e-09 5.466168e-08 6.271887e-08 4.1590326e-08 -1.1426581e-08 -2.7930227e-08
-5.87353e-09 -2.2180513e-08 5.230817e-09 -8.386493e-09 4.711194e-09 -3.069448e-08 -1.08550495e-07 -2.2654055e-08
-5.6835813e-08 1.7966774e-10 -1.0731722e-07 3.1701827e-08 -2.6887747e-08 -1.6951137e-08 -3.1270787e-08 -2.3244997e-08
-4.92359e-08 1.0559051e-08 -2.1478858e-08 -2.1158742e-08 -1.2135786e-08 5.0329028e-08 -5.9050596e-08 7.343764e-08
1.8764648e-09 1.0007644e-08 -2.3799569e-08 -3.2369105e-08 1.7733519e-09 4.6594543e-08 2.646817e-08 1.545899e-08
-4.5528775e-08 7.879182e-09 -6.557168e-08 -7.263731e-08 7.3382873e-09 -1.0571941e-08 -6.6805267e-10 -2.2368464e-08

exp_avg_sq f4 [64]
00000000: e34f 232b 8585 e42c 11ce ca29 96ff fc2c
00000010: 485b 1a2b d65c 522b b1f4 2b2c 1f12 532d
00000020: 01fe 552c 306a 402a c299 a42b 9852 ea2b
00000030: 508b b22c f2ab 5b2a 85b4 822c b287 902a
00000040: 0677 c02a 4e21 6a29 5927 c32b bdda 662d
00000050: 3ab7 912c 6b98 932c e38f 0d2b ebaa 092c
00000060: d37a b32a e4e9 3c2b 6691 062a 8f2e 132b
00000070: e9cd 582a 9910 bc2b 4bc8 3a2d 7296 cf2b
00000080: 2061 332d 01c4 b529 6cd4 f42c ac98 432c
00000090: 232d b22b 4a0d a42c 732e 762c da95 022b
000000a0: 36c8 162a f892 0429 a3be 502d 2ecc 502c
000000b0: 5d4f ad2b b587 482c 12ee ba2c 16da 742b
000000c0: 40dd 332c ac6f 082a 631a 162d 0637 692c
000000d0: 4684 d229 6172 622c 0e4e f12a 6b08 c22b
000000e0: 0487 a62c 24fe 2f29 9c25 812d f858 542d
000000f0: ea92 0f2c 969a 802c 6328 832a a287 d02b
5.80201e-13 6.4949734e-12 9.006349e-14 7.1906465e-12 5.483847e-13 7.4735823e-13 2.4436393e-12 1.1997985e-11
3.041012e-12 1.7089867e-13 1.1695577e-12 1.6649624e-12 5.074531e-12 1.9510763e-13 3.714864e-12 2.5673696e-13
3.418864e-13 5.1987325e-14 1.3866505e-12 1.3122556e-11 4.14149e-12 4.194913e-12 5.0292946e-13 1.956375e-12
3.1882014e-13 6.7115606e-13 1.1952036e-13 5.2289504e-13 1.9256093e-13 1.336281e-12 1.061735e-11 1.4749992e-12
1.0196538e-11 8.072016e-14 6.9584807e-12 2.7795917e-12 1.2660189e-12 4.6626357e-12 3.4984487e-12 4.639324e-13
1.3392138e-13 2.9437363e-14 1.1865761e-11 2.967192e-12 1.2314417e-12 2.8497042e-12 5.312869e-12 8.698887e-13
2.5560248e-12 1.211797e-13 8.532372e-12 3.3141836e-12 9.348819e-14 3.2180025e-12 4.286436e-13 1.3786866e-12
4.7329935e-12 3.9078238e-14 1.4682304e-11 1.207056e-11 2.0403076e-12 3.6551413e-12 2.3298299e-13 1.4816935e-12

exp_avg f4 [2, 64]
00000000: a124 bab5 2898 2836 397c d7b5 b262 2fb6
00000010: c4b1 a7b5 1ff2 9935 00a6 2335 1ec4 00b6
00000020: ebf5 94b6 f368 a035 2ae1 ebb5 5f06 0bb6
00000030: e375 96b4 246e 1736 e021 3935 126b 30b6
00000040: d079 cb35 bd3a 0436 5bf6 1db6 5d7a 36b6
00000050: d2f1 8d35 c725 da35 be59 a035 fdb6 02b6
00000060: a584 d7b4 4799 dfb5 5fa0 a0b4 d797 33b4
00000070: 3384 0036 f4e2 dc35 f3bf bab5 c406 45b5
00000080: 4119 74b5 99d2 dcb5 7d6b 08b6 7cfe 8231
00000090: 905a 23b6 66df 04b6 0e96 4c36 5b19 4936
000000a0: 5635 14b6 a748 3b36 7013 0635 50e9 cd35
000000b0: 72c0 e935 bcef 2cb6 e293 8eb5 f353 2936
000000c0: 8a8b f2b4 25fa b735 9b7b d2b5 ca59 7e35
000000d0: f17a d2b4 5d56 ee35 ffd4 38b5 d2db c9b5
000000e0: 0443 d8b5 057d 6c36 551d e534 d501 6ab4
000000f0: 005b 0f34 d3bf c7b5 fc3a d635 549e 9335
00000100: 051e 90b4 12c0 d3b5 09d1 cdb4 2742 6db5
00000110: a0e1 a931 6cf4 08b4 fdc2 7e35 5f6b 1b34
00000120: f1cb b3b5 7e32 4234 c404 ddb4 7eab ffb4
00000130: 43e4 bd33 0ec5 9e34 2f62 8635 66df d8b4
00000140: 7c51 3ab5 d582 90b5 9353 d9b4 9288 04b5
00000150: ca13 b134 aacc 2135 5aec 81b5 7905 65b5
00000160: 1af7 98b4 f277 5935 150e 9033 b764 e3b4
00000170: 62fe c8b3 ff40 0cb5 74c6 f434 48ec 17b5
00000180: 212a dab4 9a91 18b5 bd0f fbb5 f0ef 95b4
00000190: f6d4 4cb4 8561 8934 b47e 0735 4392 ef33
000001a0: 3ecf 7a33 203f 6835 4307 8832 9fe6 c432
000001b0: 36de 37b5 8244 07b5 a726 d2b5 e708 da35
000001c0: 12d1 bd34 1be2 4cb5 7cd2 c335 c449 07b5
000001d0: d8a5 38b4 a055 3bb5 39f6 80b4 f563 e2b3
000001e0: 905a 00b5 f18c 6134 0df9 9034 db04 1533
000001f0: 37c3 dfb4 5c57 be33 d630 df35 76f6 1335
-1.386874e-06 2.5122517e-06 -1.6054902e-06 -2.613448e-06 -1.2494206e-06 1.1469855e-06 6.0963794e-07 -1.9187642e-06
-4.4393723e-06 1.1951473e-06 -1.7574396e-06 -2.0716323e-06 -2.802545e-07 2.2564864e-06 6.8967165e-07 -2.6288367e-06
1.5160131e-06 1.9703723e-06 -2.353822e-06 -2.7191338e-06 1.0575698e-06 1.625326e-06 1.1947047e-06 -1.9478023e-06
-4.0143382e-07 -1.6659404e-06 -2.9919008e-07 -1.6725913e-07 1.9150436e-06 1.6457329e-06 -1.3913944e-06 -7.3398064e-07
-9.093383e-07 -1.6452569e-06 -2.0328146e-06 3.8124295e-09 -2.4341607e-06 -1.9799568e-06 3.0485712e-06 2.9966093e-06
-2.2084764e-06 2.790746e-06 4.9947175e-07 1.5341593e-06 1.7415862e-06 -2.576954e-06 -1.0622864e-06 2.5231827e-06
-4.517754e-07 1.3707364e-06 -1.5682193e-06 9.4753034e-07 -3.9205e-07 1.7757517e-06 -6.885529e-07 -1.5039643e-06
-1.6112758e-06 3.5239511e-06 4.2675916e-07 -2.1793615e-07 1.3351018e-07 -1.4882484e-06 1.5961409e-06 1.0998433e-06
-2.6843932e-07 -1.5776625e-06 -3.833632e-07 -8.8385644e-07 4.944198e-09 -1.2754907e-07 9.490612e-07 1.4474561e-07
-1.3395894e-06 1.8086027e-07 -4.1167925e-07 -4.7622228e-07 8.842519e-08 2.957317e-07 1.0012353e-06 -4.039568e-07
-6.9408975e-07 -1.0766913e-06 -4.0480208e-07 -4.937257e-07 3.2983218e-07 6.0275e-07 -9.680036e-07 -8.531711e-07
-2.8491996e-07 8.1013343e-07 6.708084e-08 -4.2355325e-07 -9.359498e-08 -5.2248646e-07 4.5592935e-07 -5.659572e-07
-4.0636317e-07 -5.683629e-07 -1.8705538e-06 -2.792799e-07 -1.9076455e-07 2.5589193e-07 5.0475796e-07 1.11559096e-07
5.8396147e-08 8.6518594e-07 1.5835786e-08 2.2922277e-08 -6.849617e-07 -5.039111e-07 -1.5657469e-06 1.6244857e-06
3.5356112e-07 -7.632495e-07 1.4589891e-06 -5.039876e-07 -1.7196669e-07 -6.978753e-07 -2.4021008e-07 -1.0542127e-07
-4.78155e-07 2.1006032e-07 2.7003298e-07 3.4696182e-08 -4.1679024e-07 8.863455e-08 1.6629008e-06 5.5120415e-07

exp_avg_sq f4 [2, 64]
00000000: 5af8 8231 ccae e032 e4a9 f731 9a12 2c32
00000010: 7abf a231 24d0 6031 235c df2f 1398 4232
00000020: 1b64 3433 c3d5 c531 bda0 0832 8d6d 4c32
00000030: 3687 0030 4915 0032 5519 0d30 e002 a932
00000040: 3cdc b831 5efc 4432 f3ad a332 4040 d632
00000050: 30de f130 8454 d231 118c b431 e365 0232
00000060: f200 de2e 4075 5c32 3ea7 362f 40c5 812e
00000070: 4b82 ff31 19f0 1632 8e9d ff31 81ba 2730
00000080: 3cca d730 0a6a c631 877e 7c31 691c f42d
00000090: ae3f 9032 0541 7932 12af d332 b65b a732
000000a0: 072e 0032 36ab e332 4b74 0030 24f7 d331
000000b0: 524d 0d32 013d 8132 1b27 a62f d931 9f32
000000c0: c69a b330 8259 1f32 4b0b 2932 c8e2 5831
000000d0: a443 d02e b668 6d32 e66b 8630 daa4 f631
000000e0: 949a 2b32 add1 0933 f147 fc2e c227 722f
000000f0: daac e12f af58 0d32 0f08 ab31 8c93 7b31
00000100: dd32 bb2e 7e6a 8831 3841 0530 d855 9430
00000110: 024f 012c a835 342e bb54 1031 d5eb 9a2d
00000120: 0fc0 2c31 1349 d82f 72fb d02f 3d37 4630
00000130: 77ed 812b 6b89 3c2e 8166 0231 d3af 0530
00000140: d623 be30 5e73 ca30 35aa 3d30 c9e5 8230
00000150: 603f 152f 6c2b 5130 9665 0b31 b71e c630
00000160: 3c55 002f 1a93 1230 ddf4 5e2e 37ed 1f2f
00000170: 4ec4 a42d f996 1730 bf2d f62f 2841 1b30
00000180: 0104 bf2f 6578 0930 cb30 9931 5bc0 ea2f
00000190: a035 df2e db66 2e2e 3e50 3330 c6b7 732d
000001a0: 3b66 9e2d 517b dd30 c63f 232e e497 862d
000001b0: 75ee 8830 c8b8 2b30 f076 8f31 f117 d031
000001c0: bcf9 212f 89f2 1c30 2a3e 5331 648f 0730
000001d0: 8e87 a22e a6c6 c72f bf3a 142f 5f9a 0b2f
000001e0: ac7a 8930 6eee 612e 5ae4 832f 58a7 b82d
000001f0: 5688 842f bc6f b62b a0ea c031 96aa 6330
3.8117323e-09 2.615652e-08 7.2079605e-09 1.0015947e-08 4.736589e-09 3.2714604e-09 4.062893e-10 1.1326864e-08
4.200056e-08 5.7577565e-09 7.9527895e-09 1.1899272e-08 4.6758275e-10 7.45542e-09 5.13315e-10 1.9675497e-08
5.3801426e-09 1.1466083e-08 1.90548e-08 2.4942096e-08 1.7598207e-09 6.1214127e-09 5.254613e-09 7.590162e-09
1.0095559e-10 1.2832345e-08 1.661222e-10 5.9012795e-11 7.4362894e-09 8.785741e-09 7.4393887e-09 6.1019284e-10
1.5700787e-09 5.7746137e-09 3.6742749e-09 2.7752205e-11 1.6792765e-08 1.4508491e-08 2.4643246e-08 1.9483064e-08
7.461046e-09 2.6504136e-08 4.673139e-10 6.169005e-09 8.224861e-09 1.5045318e-08 3.022301e-10 1.8532704e-08
1.3067953e-09 9.27537e-09 9.839662e-09 3.1561047e-09 9.47076e-11 1.3819024e-08 9.78045e-10 7.1782837e-09
9.988657e-09 3.2088497e-08 1.14724126e-10 2.2023897e-10 4.105008e-10 8.2274445e-09 4.977671e-09 3.6609178e-09
8.5128106e-11 3.9702277e-09 4.84778e-10 1.0792816e-09 1.837586e-12 4.0974918e-11 2.1002922e-09 1.7612503e-11
2.5138467e-09 3.9342093e-10 3.8013642e-10 7.211048e-10 9.231911e-13 4.2868303e-11 1.8975757e-09 4.863498e-10
1.3834505e-09 1.4730224e-09 6.899968e-10 9.524054e-10 1.3573986e-10 7.6095463e-10 2.0284907e-09 1.4415126e-09
1.1671814e-10 5.3323534e-10 5.0694438e-11 1.4545241e-10 1.8731818e-11 5.5148025e-10 4.4779644e-10 5.6481264e-10
3.4745543e-10 5.00114e-10 4.458433e-09 4.270103e-10 1.01503916e-10 3.9654374e-11 6.523385e-10 1.3853757e-11
1.800792e-11 1.6114915e-09 3.711855e-11 1.530149e-11 9.963076e-10 6.247203e-10 4.1753694e-09 6.0563186e-09
1.4731588e-10 5.709713e-10 3.0739877e-09 4.9316484e-10 7.3909864e-11 3.6339037e-10 1.3481392e-10 1.269682e-10
1.0002927e-09 5.1370845e-11 2.3991015e-10 2.0992694e-11 2.4107533e-10 1.296289e-12 5.614609e-09 8.2824536e-10

exp_avg f4 [2]
00000000: b4fe 90b3 4e26 c3b4
-6.751853e-08 -3.634945e-07

exp_avg_sq f4 [2]
00000000: dd9c 4c2c d331 cb2f
2.907722e-12 3.6960887e-10

exp_avg f4 [2, 1]
00000000: 6a70 b934 3c97 0537
3.4540727e-07 7.96263e-06

exp_avg_sq f4 [2, 1]
00000000: 8b97 8332 0a7e 1733
1.5319321e-08 3.527206e-08
