results/energy/checkpoints/A02_H064_L02_D01_Tanh_W4096_P010000_V5.00e+00_S3.00e-01_Adam_PT_False_device_cuda_dtype_float32_chkp.pt (torch, 168147 bytes, 23 tensors)

layers.0.fc.weight f4 [64, 2]
000000 24 6a 54 bc 56 fb d1 3e 97 cd 1e bf 13 8e fd be
       -0.012964759 0.41012067 -0.62032455 -0.49522457
000010 1a fd 94 be a8 6b 44 3e 0f d6 1f 3b 20 dc 07 3f
       -0.2909935 0.19181693 0.0024389063 0.5307026
000020 96 8a 41 bd 92 a3 2d 3e b6 69 94 be b0 00 bd bd
       -0.047251306 0.16956928 -0.289869 -0.09228647
000030 e0 a4 28 bf ba a0 e6 be 2e b4 32 bf 75 0a b6 3d
       -0.6587658 -0.450445 -0.6980618 0.08888713
000040 c5 ce a8 3e 5a 77 f9 3e cf 10 09 bf f4 8d 51 be
       0.32970253 0.4872387 -0.5354127 -0.20464307
000050 48 f8 89 3e 4a c3 08 3f 91 73 16 be 45 f1 0b 3f
       0.26947236 0.5342299 -0.14692523 0.54665023
000060 23 77 8e bd af a2 46 3d de 25 33 3f 4c e8 12 bf
       -0.06956317 0.04849499 0.69979656 -0.57385707
000070 d7 51 ec be ee 68 1e be fe b5 f7 be 24 88 36 3f
       -0.4615619 -0.15469715 -0.48381037 0.71301484
000080 4d d5 f8 be 0c 0e 91 be f8 ef ee be 65 51 35 bf
       -0.48600236 -0.2833103 -0.46667457 -0.70827323
000090 0a 3f f7 be 11 85 11 3f 1e 94 b0 3e 95 da 96 3e
       -0.48290282 0.5684367 0.34488004 0.2946364
0000a0 51 0c 2c 3c 78 5d a1 be 6f db 10 3e c0 23 32 bf
       0.010500983 -0.31516623 0.14146207 -0.695858
0000b0 81 00 07 bf 5a 3f c3 be 2e c9 17 3f b8 c2 6b 3e
       -0.52735144 -0.3813427 0.5929135 0.23023498
0000c0 00 e2 e5 be 73 39 5d 3d 4c 52 dc 3e cd cc 16 3f
       -0.44898987 0.054009866 0.43031538 0.5890625
0000d0 f0 20 93 3e 22 6f 8c 3d 36 e3 0f 3f eb f3 b8 be
       0.28736067 0.068571344 0.5620607 -0.36123595
0000e0 2e d5 0b 3e 8a a7 f0 be 6f 9e 0c bf e7 d6 9d be
       0.1365554 -0.47002822 -0.5492925 -0.3082802
0000f0 53 89 b2 3e 65 e7 92 3e 16 df e5 be 80 9b 84 3e
       0.34870395 0.28692165 -0.44896764 0.25899887
000100 bf 98 e1 3e 37 d0 8c bd 41 7c 2c 3b 9d c1 1d 3e
       0.4406185 -0.06875651 0.0026319178 0.15405889
000110 7d 95 d8 3e 99 89 c8 3e bb b1 18 bf ac 40 b9 bd
       0.4230155 0.3916748 -0.59646195 -0.09045538
000120 f9 96 ae 3e 6c e8 f3 3e 39 4b 1a 3f ad 41 12 3f
       0.34099558 0.4763826 0.6027103 0.57131463
000130 05 41 2c 3e 22 e9 19 bf b4 f8 c3 3d 66 04 c5 be
       0.16821678 -0.6012136 0.09568921 -0.38479918
000140 e0 12 37 bf 9e 1f 06 3f 1d c7 31 3f b8 ce 3e bf
       -0.71513176 0.52391994 0.6944445 -0.7453418
000150 30 19 fc 3d 96 70 cd bd 3c 75 ce bd c6 e0 98 be
       0.12309492 -0.1003124 -0.100809544 -0.2985899
000160 70 3f 94 3e 67 26 01 bf 8e 4e 9d 3e 44 43 c1 3e
       0.2895465 -0.5044922 0.30723995 0.37746632
000170 30 e8 08 3f ae 3d 75 3e 67 59 2e bf 14 39 d8 be
       0.5347929 0.2394931 -0.6810517 -0.42231047
000180 cf 4b b7 3e 4a 8d 03 3e cf 13 17 bf be 09 c2 be
       0.35800025 0.12846866 -0.590146 -0.37898058
000190 eb 74 34 3f 64 36 e9 3e 1e 13 ad be 66 f8 29 be
       0.704909 0.4554931 -0.33803648 -0.16598663
0001a0 c9 30 68 bf 9c 3f 1d 3e d7 3d 1d bf 8b d3 c1 be
       -0.9069944 0.15356296 -0.61422485 -0.37856707
0001b0 57 57 7f bd 7e b8 ed 3d b5 74 a3 be a5 4c e5 3e
       -0.062339153 0.11607455 -0.31924978 0.44785038
0001c0 47 56 f1 be 02 22 29 3f 29 b9 0b 3f 14 df 17 bf
       -0.47136137 0.66067517 0.54579407 -0.59324765
0001d0 48 9d 3a be 21 fb 6f 3d eb ec 40 3e ae 44 05 3e
       -0.1822406 0.058589105 0.18840377 0.1301448
0001e0 0f 72 7c 3e 69 52 47 3d ed e6 b6 be 8d e3 91 3e
       0.24652885 0.048662577 -0.35723057 0.2849392
0001f0 ab 3c 2f bf 64 cc df be 80 37 13 be f7 a0 88 be
       -0.68451947 -0.43710625 -0.1437664 -0.26685306

layers.0.fc.bias f4 [64]
000000 b5 c0 7a be ce e4 10 bf 04 50 18 be b2 38 16 3e
       -0.24487574 -0.5659913 -0.14874274 0.14670065
000010 94 06 f0 be 7d 56 a8 bc 62 3a fe 3e 68 63 e3 bb
       -0.4688002 -0.020549053 0.49653918 -0.0069393404
000020 df 9e b2 ba 93 51 43 bd 5f 55 19 3e 1c 1d df 3e
       -0.001362767 -0.047685217 0.14973973 0.43576896
000030 23 60 2d 3f 45 dd e3 3e b0 78 2b 3f 71 1b 97 bc
       0.6772482 0.44504753 0.6698103 -0.018445702
000040 04 64 1e bf 3f ac 96 be d7 14 e4 3e 90 e1 f9 bb
       -0.6187136 -0.29428288 0.4454715 -0.007625766
000050 70 58 c7 be f0 17 0a bf 45 3a 26 bf d8 2b 15 bf
       -0.3893466 -0.53942776 -0.6493266 -0.58270025
000060 85 1d 02 be e6 fb d1 3e 74 24 c2 3e fa 4d 23 bf
       -0.12706573 0.41012496 0.37918437 -0.6379086
000070 dd d4 ec 3e 50 e3 04 bf 20 df d8 bd b7 31 62 be
       0.46256152 -0.5190935 -0.10589433 -0.22089277
000080 02 b1 0a be ee 42 1c be 42 68 30 bf d4 17 1b bf
       -0.13544086 -0.15259907 -0.68909085 -0.60583234
000090 e8 c2 ec bd cd e8 15 bc 5f da 9a be f1 b6 89 3e
       -0.11560613 -0.009149742 -0.3024473 0.26897386
0000a0 fb 99 18 bf 15 93 4b bd 6c a1 1f 3f 88 00 93 be
       -0.59609956 -0.049700815 0.62355685 -0.28711343
0000b0 b6 ca 22 3f ec 72 81 3e 8c af 22 bf bd 41 eb 3e
       0.6359056 0.2528299 -0.63549113 0.45948592
0000c0 05 37 a6 bd 8d 51 a3 be 49 a0 0f 3f 8b 96 11 bf
       -0.08115963 -0.31898156 0.5610395 -0.56870335
0000d0 70 f2 b9 3d 41 98 fd bd 9a bd 02 3f ea 49 53 3e
       0.090794444 -0.12382556 0.5107056 0.20633665
0000e0 1c c7 93 3e 43 f1 7c 3e 9a 79 2c be a0 35 1d be
       0.28862846 0.24701409 -0.16843262 -0.15352488
0000f0 6b 85 15 bf 0d bc ba 3e 04 24 0c 3f 04 71 fa 3e
       -0.58406705 0.36471596 0.54742455 0.4891435

layers.1.fc.weight f4 [64, 128]
000000 06 ba 6e bd 9d 59 67 bb 65 67 27 bd ac ab ed bc
       -0.058282875 -0.0035301216 -0.04087009 -0.029012524
000010 f1 b6 52 bd 76 73 29 3d a1 aa 36 bd 40 8f a5 3c
       -0.051443998 0.041369878 -0.04459632 0.020209908
000020 48 72 89 3b ea 65 8a 3d 38 40 5f bd 6c ce 5c bd
       0.0041945316 0.0675772 -0.054504603 -0.053907797
000030 b4 bf 4a bd d2 81 bf 3c d4 85 c0 bc b9 59 ca 3d
       -0.04949923 0.023377333 -0.023501314 0.098803945
000040 d3 d3 ea 3c a2 c8 cf 3a 01 3a 72 3b ef 59 ba bc
       0.028665459 0.001585264 0.0036960843 -0.022747962
000050 96 e1 1a 3b 65 81 d4 bc 2e 48 bf bb e5 01 3d 3a
       0.0023632995 -0.025940606 -0.005837462 0.000721006
000060 4d ff 2e bd 26 cb 13 bd 96 56 87 3d 82 26 9b bd
       -0.042723943 -0.03608241 0.06608312 -0.07575704
000070 10 2d 6b bc 3e 86 ab 3d be a4 d4 3c 65 3a f5 3c
       -0.014354005 0.08375214 0.025957461 0.029935071
000080 9a 86 bc bd fd 7a 2b 3d bc a7 91 bd cb 24 c9 bc
       -0.09205361 0.041865338 -0.07112071 -0.024553677
000090 f2 47 e1 bc 98 08 5e bc d9 fc 03 bc d2 cc 87 3d
       -0.027500127 -0.013551854 -0.008055889 0.06630863
0000a0 8b 4a 2c 3d c3 4e 81 3d 9e 1a 59 3d cc 32 86 bd
       0.042063277 0.06313851 0.0530039 -0.065526575
0000b0 f2 a9 03 3d 04 60 61 bd a8 a6 4b bd 27 4f 07 3d
       0.032144494 -0.05502321 -0.049719483 0.03303447
0000c0 fb 4d 8d 3c a7 9b 8b 3d 31 31 bb bc e2 d9 e3 b9
       0.017249098 0.06816798 -0.022850605 -0.0004345915
0000d0 fa 45 98 3d e2 91 a7 bd ed da 8a 3d da 26 84 bd
       0.07435222 -0.08182122 0.06780038 -0.06452723
0000e0 9e ad 04 3c 60 5e 3a bd b0 43 16 bd b3 53 10 3c
       0.008098034 -0.04550016 -0.036685646 0.008809018
0000f0 e2 a1 92 3d 21 82 a9 bc e1 1d 32 bd d1 84 09 bd
       0.07159783 -0.020691933 -0.043485526 -0.03357393
000100 a8 28 ad bd 4b d1 0c 3d c4 2f 2f bd 29 62 1f bd
       -0.0845502 0.034379285 -0.042770162 -0.038911972
000110 0c 5d 4f bd 0c 25 03 3d 4d d9 12 3d a8 3e 72 3d
       -0.050625846 0.032017753 0.035851765 0.059141785
000120 29 f0 83 3d 98 0f 40 bd 66 d0 1a ba c2 17 06 3d
       0.06442291 -0.04688987 -0.00059056876 0.0327375
000130 d1 78 95 3d 3d 6c 8a 3c 6d cd 44 bd 2b 1a 09 bd
       0.072984345 0.016897315 -0.04804747 -0.03347222
000140 a0 b5 ae bd 2a 25 02 3c 1d a8 54 bd 2e 62 52 bd
       -0.08530736 0.007943431 -0.051918138 -0.051363163
000150 40 b0 8d 3d 28 d0 82 bd 3a 72 54 bc 99 00 13 3d
       0.06918383 -0.06387359 -0.012966687 0.03588924
000160 ac ac 38 bb 3e bf 4f bd 57 f3 8c bd cc 01 96 3d
       -0.0028179092 -0.050719492 -0.06882351 0.073245615
000170 8d ae 47 3c df 8e 8f 3d c5 b5 82 bc 01 4e dc 3c
       0.012187612 0.070096724 -0.015955815 0.026892664
000180 01 62 7e bc 3e 16 9e bb c9 ab 1e bd 3b ae f1 3c
       -0.015526296 -0.004824429 -0.038738046 0.029502025
000190 88 29 68 3d 2a 22 b5 3c 31 07 eb bc b7 85 68 bd
       0.056680232 0.022111017 -0.028689953 -0.056768145
0001a0 ab de 86 3d 95 43 7b bd 9a 5a 16 3d a4 83 23 bd
       0.06585439 -0.061343748 0.036707498 -0.039920464
0001b0 36 b5 38 bd bb 37 e2 3c 66 a5 19 bd e2 88 30 3c
       -0.04509469 0.027614465 -0.037511252 0.010774823
0001c0 3f bd ed 3c 55 c7 95 bd 3f 04 a9 3c cc 9b 12 3d
       0.029020904 -0.0731341 0.020631908 0.03579311
0001d0 ec da fe 3c 75 b6 dd bc 70 2a 8f bd ad af 64 bc
       0.03111025 -0.027064541 -0.06990516 -0.0139579
0001e0 93 65 f1 3c 00 04 19 bd 55 32 ec 3c 90 77 7b 3d
       0.02946738 -0.03735733 0.028832594 0.06139332
0001f0 c9 89 2f bd 1a 3d e0 ba 1c e1 db 3c bc d7 4c 3b
       -0.04285601 -0.0017108053 0.026840739 0.0031256517
000200 37 c2 66 3b 7c 66 05 3c 26 71 70 bd 03 78 27 3c
       0.0035210976 0.00814211 -0.058701657 0.010221484
000210 62 d8 6a 3d 84 3e c7 3d a0 cf 7e 3d d3 26 ed 3c
       0.057335265 0.09728721 0.062209725 0.028949177
000220 89 d9 03 3d df 74 da bc 97 01 9b bd 40 32 95 bd
       0.03218988 -0.026667057 -0.075686626 -0.07284975
000230 47 72 b3 3d db c5 05 3d 3a 9e 63 bd b5 a4 36 3d
       0.08762031 0.032659393 -0.05557082 0.04459067
000240 31 f2 86 3d f3 32 b9 3d b0 50 9a 3d d6 d4 65 3d
       0.06589163 0.09042921 0.07534921 0.05611118
000250 7e f2 cf bc 7a 5e 02 bd 5a d0 8f 3d fb bf 20 3d
       -0.025384184 -0.03182838 0.07022162 0.039245587
000260 97 2e 0e bd 16 c3 a1 3d 5d 9e 20 3d 99 b2 4c 3d
       -0.0347124 0.07898538 0.039213527 0.04997501
000270 cc de 67 bd 6a 81 cb 3c f3 dd 26 bd 98 c1 ab 3d
       -0.05660896 0.024841983 -0.04073901 0.083865345
000280 63 01 a9 bc 7b 04 d5 3c b8 d0 e8 3b 63 fd 23 3d
       -0.020630544 0.026003113 0.0071049593 0.04003657
000290 80 f5 12 bd a9 71 11 3d 85 5b 83 bd 6b 5c ba 3c
       -0.03587866 0.035508785 -0.0641394 0.022749146
0002a0 13 96 2c bd e8 c0 c6 bd 26 76 8f bd 86 f8 87 3d
       -0.04213531 -0.09704763 -0.07004957 0.06639199
0002b0 78 ff 3a 3d b1 46 a4 3d 20 ae 72 3d 23 e6 8d bd
       0.04565379 0.08021296 0.05924809 -0.06928661
0002c0 0f ec 92 bd d3 66 fe bb 8c 3e 63 bd 25 3d 7f 3d
       -0.07173931 -0.0077637224 -0.05547957 0.06231417
0002d0 eb a8 2a bd c5 46 07 bd b9 c0 ab bd e0 c0 3c bd
       -0.041665 -0.033026475 -0.08386368 -0.046082377
0002e0 96 37 96 3d e6 b5 60 3d 2f ae 88 3d ba f1 75 3d
       0.07334821 0.054860972 0.06673848 0.06004498
0002f0 57 aa a8 3d d2 f7 bb bc a7 74 4c 3d 3c 5d a7 3d
       0.08235615 -0.022945318 0.049915936 0.0817208
000300 c6 c5 c8 3c 7b 0f ba 3d a6 7f 4a 3d dc 5b 6d 3d
       0.024508368 0.09084984 0.04943814 0.057948932
000310 0b 31 0a bd 97 a8 50 3d 7d 9a 01 3c 3e 75 59 bc
       -0.033738177 0.05094203 0.007910368 -0.013272582
000320 6e b4 44 bd 8a 87 2e bd a0 7f 85 bd 6c e2 80 3d
       -0.048023634 -0.04260973 -0.06518483 0.062931865
000330 04 9a 80 3d 2a e7 8b bc 7f 66 5d bd 06 b6 69 3d
       0.06279376 -0.017078001 -0.054052826 0.057058357
000340 7f 75 79 3d 16 33 06 3c eb d1 40 bd a0 ca a2 3d
       0.06090307 0.008190891 -0.047075193 0.07948804
000350 19 50 fe 3c 64 7a 8d bd 16 5c b4 3d 52 b3 93 3d
       0.031044053 -0.0690811 0.088066265 0.07211937
000360 b3 01 dd bc fb af 40 3d b9 16 58 bd 90 f5 30 bc
       -0.02697835 0.047042828 -0.052756045 -0.010800734
000370 d6 0c 9f 3d fb 67 00 3c d3 0a 85 bd 1a 39 c3 bc
       0.0776612 0.007837291 -0.06496205 -0.02383094
000380 19 c7 f1 bc 94 16 d1 bc 3e f2 8c 3c 59 ac b5 3d
       -0.029513882 -0.025523461 0.017205354 0.08870763
000390 b1 d4 1f 3c 57 f4 68 bd a5 22 f1 3a 5d c0 41 3d
       0.009755299 -0.056873646 0.0018397166 0.047302593
0003a0 5f cf 4b 3d e5 3c 82 bd 87 b0 87 bc b6 f6 8d bd
       0.04975831 -0.06359271 -0.016563667 -0.06931822
0003b0 d6 cd 22 bd d9 6c 02 3d d2 00 73 bd 7f f8 07 3d
       -0.03974708 0.031842086 -0.059326954 0.03319597
0003c0 6a 1f 8a 3d 6e a3 33 3c f0 82 7a bd 35 04 ed bc
       0.06744273 0.010964258 -0.061160028 -0.02893267
0003d0 fe ae 01 3d 9b d5 81 bd c2 c1 34 3d 8d 3c ac bd
       0.031661026 -0.0633957 0.044130094 -0.08409987
0003e0 31 65 b9 bd 50 b4 b7 bd ac 6e a5 bc 98 84 56 3d
       -0.09052504 -0.08969939 -0.020194374 0.052372545
0003f0 98 23 a9 bd 69 8d 8d 3d 22 86 18 bd cd 43 de 3c
       -0.08258742 0.069117375 -0.037237294 0.02713194

layers.1.fc.bias f4 [64]
000000 fb bc 88 3d 65 49 d0 bb 44 8f 0c bd 27 0f 0a 3c
       0.0667667 -0.0063564056 -0.034316316 0.008426464
000010 26 95 85 3c 1d 86 37 bc f6 6e 09 3d e2 2c 1e 3d
       0.016306471 -0.011201409 0.033553086 0.038617022
000020 6a a5 25 bd 50 06 a9 3d ac 25 65 3d a7 8d d3 bb
       -0.040440954 0.08253157 0.05594413 -0.0064560953
000030 9c e2 89 3d 71 d0 db bc 88 83 7f 3c 05 d3 56 3d
       0.067326754 -0.026832791 0.015595324 0.052447338
000040 8e 6e 85 bd a6 59 e7 bc fa d8 6f bd b6 d1 b3 bc
       -0.06515227 -0.02824099 -0.058556534 -0.021950584
000050 76 11 3f bd 38 62 05 bd bb 91 15 bd a4 4d 83 3d
       -0.04664751 -0.03256437 -0.036515933 0.06411293
000060 85 0c d5 3c f0 1e b7 bd a1 79 36 bd cb 76 f2 bb
       0.026006946 -0.08941448 -0.044549588 -0.007399415
000070 46 c8 06 3d 9b 4e 74 3d 45 6f c6 3d 86 8a 77 bd
       0.03290584 0.059645277 0.09689192 -0.06043484
000080 eb cc a8 3d 83 1f 53 3d dc 64 3f bc 3f 3b 85 bd
       0.0824221 0.051543724 -0.011681762 -0.06505441
000090 3a ca 8a bd 43 12 10 3c 74 d9 a5 bc 66 2f b4 bd
       -0.06776853 0.008793416 -0.020245291 -0.08798103
0000a0 62 9f 07 bd 24 1b 30 3d 9e 4d 66 3a 6b b2 8f bd
       -0.033110984 0.042994633 0.00087853696 -0.070164524
0000b0 29 ca 86 bd 46 0c 0b 3d 2f 10 87 3d 6b 0c e4 bc
       -0.06581528 0.03394725 0.06594884 -0.027837953
0000c0 7b 55 8b bd a7 dd 22 3d 17 46 57 bd 66 64 91 bd
       -0.068034135 0.039762165 -0.052557077 -0.070992276
0000d0 7c 5c a2 3d a0 f0 55 3c 2e 9a aa bc 74 6f 35 3c
       0.07927796 0.013057858 -0.020825472 0.011073936
0000e0 48 0c 91 3d 00 cf a2 bd 8d 06 3f bd fc 66 ad bc
       0.070824206 -0.07949638 -0.046637107 -0.02116727
0000f0 53 05 d7 bd c6 0a a3 3d ff 7a aa bd c0 37 00 bd
       -0.104990624 0.07961039 -0.08324241 -0.031303167

layers.2.gsds.0.weight f4 [2, 64]
000000 07 5e 85 3d c3 34 dd 3d a9 fd 38 bd 48 d1 2f 3e
       0.06512075 0.10801079 -0.045163784 0.17169678
000010 80 8a 0e bc 79 46 e6 bd 39 f1 de bd 79 a1 2e bd
       -0.008700013 -0.1124391 -0.10885853 -0.04263446
000020 4f 98 03 bc b2 28 08 3e 80 bd 84 bd 3c 14 b4 bc
       -0.008031919 0.13296774 -0.06481457 -0.021982305
000030 fa 3b ac 3d 0a 4f 21 bd 57 24 78 3d e7 be 63 bb
       0.08409877 -0.03938202 0.06058153 -0.0034751238
000040 85 4b 63 bd 65 62 c7 bd 6c 6e e2 3d af a2 b2 bd
       -0.055491943 -0.09735564 0.110562176 -0.08722436
000050 ad a1 3f 3c a2 e5 3d 3d ce d9 63 3c b7 a5 85 bc
       0.011696261 0.046361573 0.013906909 -0.01631437
000060 aa 82 96 bc 38 d5 73 bd 70 6b 03 3d b1 fc 20 bd
       -0.018372852 -0.059529513 0.032084882 -0.039303485
000070 7e 64 2a 3d 1f 3c 57 3d cc 34 57 3d bd b4 74 bd
       0.041599743 0.05254757 0.052540585 -0.059742678
000080 fd eb b1 bd d6 b2 7b bd 1f 98 0d 3d c3 04 67 3c
       -0.08687589 -0.061449848 0.034568902 0.014100256
000090 56 fb e4 3d 4c 4a 9d 3d 2b fa 59 bd fe 47 b0 3d
       0.11180751 0.07680187 -0.053217094 0.086074814
0000a0 0d 2f 5e bd af 3d 2b bd fe f2 be 3d 62 a0 cb bd
       -0.05424409 -0.041806873 0.09323691 -0.099427
0000b0 86 c5 44 bd 78 4e c8 bd ad d2 44 3d 0f 85 d7 3d
       -0.048039936 -0.09780592 0.04805248 0.10523426
0000c0 4f a3 d9 3d 9a 1b 2d bd fd b2 b9 bd d9 e1 8c 3d
       0.10626852 -0.04226265 -0.090673424 0.068790145
0000d0 af 05 dd bc 19 36 4c bd c1 50 a4 bd cb 93 ac 3d
       -0.02698025 -0.04985628 -0.08023215 0.08426627
0000e0 d7 80 8a bc 3d 3f 8c 3b a4 79 14 bd d3 cd 24 3b
       -0.016907139 0.0042799995 -0.036248818 0.0025147095
0000f0 9c 17 65 bd 62 0d fd 3d a0 2d d3 bd be 6e f8 3b
       -0.05593072 0.12356068 -0.10311437 0.007581561
000100 c3 0d 73 bd c2 d4 8a bd 08 b1 cf 3d 96 f8 fe 3d
       -0.059339296 -0.067788616 0.10141188 0.12449758
000110 0c 9a aa 3d 19 ab 2d 3d 5c b3 9b 3d a2 7d f2 3d
       0.08330163 0.0423995 0.076025695 0.11840369
000120 e4 2f ad bd 2f 4c 06 bd 86 7f 4d 3b 7c 94 46 3d
       -0.084564 -0.032787498 0.0031356527 0.04848145
000130 c9 85 84 3d cc c0 e2 bc db d6 fb 3d e6 da 9a bd
       0.0647083 -0.027679823 0.1229684 -0.07561283
000140 80 11 5b 3d de 63 ff 3d 7d e1 90 3c d4 f0 aa 3d
       0.053483486 0.1247022 0.017685646 0.083467156
000150 4c de 06 3e f3 d5 90 bd 7d 67 b0 3d 51 3a 85 3d
       0.13170737 -0.070720576 0.08613489 0.065052636
000160 61 c7 de 3d 1c 75 04 3d a2 82 fd 3c f8 04 c5 3b
       0.10877872 0.032338247 0.03094608 0.006012555
000170 1c b1 67 3d 94 c5 8f bd ec 3b 6d be 80 cc c1 3d
       0.05656539 -0.07020107 -0.2316739 0.094628334
000180 40 60 ed 3d b8 f3 01 bd fa 21 de 3d 08 24 1a 3d
       0.11590624 -0.03172657 0.10846324 0.03763202
000190 9d d4 7f 3d fa 63 02 bd eb c2 88 3d a0 33 46 bd
       0.062458623 -0.031833626 0.06677803 -0.048389077
0001a0 00 dc 00 bd 14 94 4c 3d 83 7b 88 bd e6 6c bf 3d
       -0.03145981 0.049945906 -0.06664183 0.093469426
0001b0 1f b8 f7 bc df f6 63 bd a5 cb fe 3d 7a 05 d1 3d
       -0.030239163 -0.055655356 0.12441186 0.10206123
0001c0 80 c3 c6 bd 02 8a 80 3d 24 43 36 3d f9 c7 e3 bc
       -0.097052574 0.06276323 0.044497624 -0.027805315
0001d0 2b d1 fd 3c 07 f7 cf bd f7 13 d6 3c 3c 3f ab bd
       0.030983528 -0.101545386 0.026132567 -0.083616704
0001e0 36 03 d3 3d 99 f1 c5 3a ed 65 43 3e 4a 8b 03 3d
       0.10303347 0.0015101909 0.1908185 0.03211526
0001f0 c6 cb 1d bd da f4 45 3d 29 bc 2f 3d f5 84 09 3e
       -0.03852441 0.04832921 0.042904053 0.13429625

layers.2.gsds.0.bias f4 [2]
000000 ea 3b 96 bc 04 ea ed 3d
       -0.018339116 0.116169006

log_envelope.log_envs.0.weight f4 [2, 1]
000000 0d ff 30 3f ed c1 2e 3f
       0.69139177 0.6826466

exp_avg f4 [64, 2]
000000 1f 20 5a 36 61 ee 36 38 a4 da 7b b7 07 b7 eb b7
       3.2503228e-06 4.361419e-05 -1.5011672e-05 -2.8099412e-05
000010 b0 9d 34 38 33 58 a7 36 23 d6 f8 b8 f3 82 a7 b7
       4.3062202e-05 4.9872556e-06 -0.000118654476 -1.996893e-05
000020 fa 36 91 38 36 dc 1b 38 f1 bc 06 39 21 ed 78 38
       6.924379e-05 3.7159967e-05 0.00012849622 5.934865e-05
000030 e7 9c 50 38 ec 2f 8a b8 29 75 f4 37 8a 91 b4 b7
       4.973719e-05 -6.589279e-05 2.9141624e-05 -2.1525444e-05
000040 48 95 2d 37 2f 7f bd 37 14 97 59 b8 5c 48 30 36
       1.0346361e-05 2.258978e-05 -5.1877534e-05 2.6268162e-06
000050 9e d6 3e 38 75 d2 30 37 ae cd d5 36 1a a6 bc b5
       4.5499408e-05 1.0539418e-05 6.371839e-06 -1.4055433e-06
000060 f6 78 c0 b8 9d 70 b7 b8 1f f6 d4 37 39 a2 67 37
       -9.177804e-05 -8.747096e-05 2.5386978e-05 1.3806443e-05
000070 e4 bc 7b 35 1c e7 33 37 0d a4 4f 38 d2 65 06 38
       9.377966e-07 1.0723041e-05 4.950543e-05 3.2042917e-05
000080 f4 fd e7 38 e2 64 aa 38 a9 21 a8 37 12 5d cc b7
       0.00011062241 8.1250226e-05 2.0042835e-05 -2.4362034e-05
000090 45 b9 af 38 69 66 8d 38 46 33 19 38 1c 02 3a b7
       8.3791594e-05 6.742479e-05 3.6525795e-05 -1.1086955e-05
0000a0 6a fe 1e 38 c6 0d b8 b3 ee 81 1a b9 b0 f0 d6 b8
       3.7907077e-05 -8.570673e-08 -0.00014734987 -0.00010249147
0000b0 4a 99 df b7 8b dc 20 b8 d9 f6 8d b6 49 3d ff 35
       -2.6655052e-05 -3.835237e-05 -4.2308643e-06 1.9016817e-06
0000c0 e2 02 ea 38 ba 48 1f 38 c2 81 f9 b5 74 3b ca b6
       0.000111585265 3.7976286e-05 -1.858971e-06 -6.0269904e-06
0000d0 05 57 b5 b7 59 70 03 b8 a6 1b bf b8 cc ae ab b8
       -2.1617403e-05 -3.1337466e-05 -9.11274e-05 -8.186474e-05
0000e0 cf 52 8b 37 c2 27 8f 37 42 b3 7e 38 f6 e1 89 38
       1.6608652e-05 1.7065442e-05 6.0725266e-05 6.5747576e-05
0000f0 a7 c9 80 b8 bf 35 bd 37 e6 c5 e0 38 10 7e 27 38
       -6.141076e-05 2.2555583e-05 0.00010718014 3.9933308e-05
000100 59 2f db b7 a4 3d 2b b8 ce d2 48 38 7a 3b 1d 38
       -2.6128882e-05 -4.0826984e-05 4.7880043e-05 3.748711e-05
000110 e3 1d a6 b7 0f ec 19 35 45 4f 3f 38 f7 ee 56 b7
       -1.980266e-05 5.734045e-07 4.5611774e-05 -1.2811032e-05
000120 f7 1e ad b8 8e f0 2a 37 71 98 e8 b7 ad eb 1e 37
       -8.2550505e-05 1.0188798e-05 -2.7727541e-05 9.472406e-06
000130 f5 cc 2b b7 60 be ed b7 86 9c a3 b8 07 15 35 37
       -1.02401145e-05 -2.8341252e-05 -7.8016004e-05 1.07933365e-05
000140 18 27 bf b8 be d2 e6 b8 20 bd 0d b9 73 23 a8 b8
       -9.1148715e-05 -0.000110065084 -0.00013517262 -8.017467e-05
000150 c8 15 96 b8 24 d2 07 b8 1d 78 d8 38 c5 dd 6d 38
       -7.1566144e-05 -3.2382217e-05 0.000103220555 5.6711742e-05
000160 f8 e3 2a b7 53 52 2f b8 f1 e0 16 38 f0 8b 04 38
       -1.0185868e-05 -4.179992e-05 3.597228e-05 3.160158e-05
000170 2f 92 11 38 ae 56 65 38 e9 eb 6d b8 67 e6 3b 38
       3.4706838e-05 5.467858e-05 -5.672491e-05 4.4798853e-05
000180 4a 84 93 b8 f2 38 28 b7 33 57 fb 38 1b 46 54 38
       -7.034147e-05 -1.0026839e-05 0.00011984855 5.061003e-05
000190 f5 e8 91 b7 e4 a6 44 35 a2 fd 65 b8 af d2 88 b8
       -1.7393826e-05 7.325855e-07 -5.483407e-05 -6.524228e-05
0001a0 34 6c a3 38 20 cd a8 37 4a 93 dd 38 f2 13 7e 38
       7.7926e-05 2.012268e-05 0.00010565536 6.0576895e-05
0001b0 59 ec 13 37 1b 79 0d 37 8f 06 9e 38 2a 98 d2 38
       8.816912e-06 8.432452e-06 7.535249e-05 0.00010041923
0001c0 22 38 ce 38 24 8e 1f 38 ac 50 16 38 01 eb 90 37
       9.833301e-05 3.8040933e-05 3.583792e-05 1.727557e-05
0001d0 6e 7f c5 38 8d c8 b5 37 f9 ec 08 b8 1c 01 91 b7
       9.417428e-05 2.167027e-05 -3.2645625e-05 -1.7285864e-05
0001e0 05 86 6f 37 6d 3d 06 36 0c 76 67 38 b8 ce 4b b7
       1.4276714e-05 2.000331e-06 5.518463e-05 -1.2147873e-05
0001f0 62 64 20 38 a5 2e 5d b8 87 a8 4b b7 e1 93 64 b6
       3.824046e-05 -5.2733947e-05 -1.2138981e-05 -3.4060724e-06

exp_avg_sq f4 [64, 2]
000000 2f 52 7e 37 ca 3c 84 37 84 13 a1 36 e1 82 82 36
       1.5158715e-05 1.5763933e-05 4.800446e-06 3.889538e-06
000010 8e 03 99 36 33 77 94 36 de ce 60 38 dd d2 99 38
       4.560169e-06 4.4246203e-06 5.359842e-05 7.334885e-05
000020 e3 60 98 37 60 48 98 37 12 f2 06 37 78 ed 9a 36
       1.8164928e-05 1.8153514e-05 8.043384e-06 4.6172026e-06
000030 49 40 ab 37 0e 50 dc 37 dd a3 01 34 0d dd 3a 35
       2.0414724e-05 2.6263322e-05 1.2073674e-07 6.961207e-07
000040 ae 38 f1 34 97 e3 15 34 c2 99 ae 37 fa a8 bb 37
       4.4930988e-07 1.3959503e-07 2.0814015e-05 2.2370823e-05
000050 56 0b 91 37 b4 6a c0 37 9e 37 2f 34 8d d6 34 34
       1.7290626e-05 2.2937871e-05 1.6318378e-07 1.684186e-07
000060 94 44 e6 37 2e 1b 24 38 23 7c 02 38 ea 91 00 38
       2.745007e-05 3.912596e-05 3.1110027e-05 3.065347e-05
000070 a4 11 e9 36 58 64 56 37 c1 a9 dd 34 eb 12 92 35
       6.9459948e-06 1.2778757e-05 4.128797e-07 1.0883354e-06
000080 db 0f a4 36 76 de 2c 36 09 c7 a6 36 83 28 ab 35
       4.8894267e-06 2.5759487e-06 4.9703563e-06 1.2752283e-06
000090 5a 02 74 36 f0 16 62 35 4f 3c 2a 38 6f f8 52 38
       3.6360202e-06 8.422494e-07 4.0587325e-05 5.0299273e-05
0000a0 92 47 48 35 6e 1b c3 35 54 81 a3 37 b3 f9 e1 37
       7.4609954e-07 1.4536615e-06 1.9491337e-05 2.6938365e-05
0000b0 17 ac ae 34 53 c1 42 35 97 f4 e2 34 d3 65 ae 33
       3.2535237e-07 7.2551956e-07 4.2273743e-07 8.121028e-08
0000c0 dd ba 55 35 f9 1a 68 34 77 52 20 35 dd f5 65 35
       7.9620605e-07 2.1616496e-07 5.9724647e-07 8.5666926e-07
0000d0 ef 84 fc 35 88 4d 33 36 6e 97 d6 36 56 c3 12 37
       1.8814152e-06 2.6718208e-06 6.3953257e-06 8.747758e-06
0000e0 1e 6d a4 36 36 1f c0 36 30 a8 c0 35 40 72 14 35
       4.900284e-06 5.7256793e-06 1.4354064e-06 5.530055e-07
0000f0 51 19 79 36 4d ee aa 36 da 26 6f 36 5a 0c 84 35
       3.7118627e-06 5.0941367e-06 3.563639e-06 9.838361e-07
000100 0b af f8 37 07 0a 12 38 5b 50 5d 38 6f 0e 8e 38
       2.9645415e-05 3.481845e-05 5.2765343e-05 6.773776e-05
000110 91 91 e2 34 c3 a9 38 35 d5 57 a5 35 70 72 3b 35
       4.2201694e-07 6.879238e-07 1.231902e-06 6.9829457e-07
000120 9a ac 3c 37 e3 b3 74 37 7f bd ac 35 3f da ca 35
       1.124586e-05 1.45854165e-05 1.2870149e-06 1.5113691e-06
000130 ef 66 3d 37 75 e6 19 37 ae e9 e0 37 ca d6 b1 37
       1.1289244e-05 9.173168e-06 2.6811696e-05 2.1200063e-05
000140 2b df e6 36 8e 4d 12 36 72 a3 a2 36 94 c7 c6 36
       6.8805143e-06 2.1800838e-06 4.8470038e-06 5.924094e-06
000150 42 6b a6 37 8c 37 9d 37 4f d6 12 38 d6 4f 1d 38
       1.9838688e-05 1.8741724e-05 3.5008703e-05 3.750607e-05
000160 c3 05 5c 37 88 76 2e 37 39 74 16 37 ac 05 30 37
       1.3114363e-05 1.0398806e-05 8.967757e-06 1.0491738e-05
000170 27 50 85 37 fa a5 c5 37 f6 de c1 37 d6 16 20 38
       1.589216e-05 2.3561519e-05 2.3111217e-05 3.816824e-05
000180 db 30 8f 37 37 d7 98 37 9e 1f 5c 37 ac 27 31 37
       1.7069679e-05 1.822003e-05 1.3120383e-05 1.0559259e-05
000190 e3 1b 9f 35 41 46 1f 35 49 cd 85 37 3f 34 5b 37
       1.1854539e-06 5.933435e-07 1.5950429e-05 1.3065582e-05
0001a0 79 54 97 35 51 9a 20 36 fe 82 a6 36 c6 ec bf 36
       1.1274961e-06 2.3931682e-06 4.962435e-06 5.7198076e-06
0001b0 8a 12 a9 36 a2 f0 f0 36 70 41 a6 36 fc 0f 97 36
       5.0387507e-06 7.1805707e-06 4.9548034e-06 4.5020115e-06
0001c0 4a 89 03 36 71 b0 a2 34 60 cf 04 38 63 4c 04 38
       1.9600434e-06 3.030323e-07 3.1664385e-05 3.1542393e-05
0001d0 b0 e2 9e 36 dd e0 b1 35 01 ea 29 35 9d a9 02 36
       4.735157e-06 1.3252971e-06 6.3297927e-07 1.9470237e-06
0001e0 c1 b9 a8 35 28 1c f8 35 01 47 5f 37 ea 3a d9 37
       1.2571037e-06 1.8485634e-06 1.3308368e-05 2.589585e-05
0001f0 51 7c 3e 37 81 6f 3f 37 b8 a5 33 36 7a 05 8c 36
       1.1353827e-05 1.1410449e-05 2.676954e-06 4.1729627e-06

exp_avg f4 [64]
000000 50 a3 b3 b8 b9 e0 cd b8 cd cb b1 38 7f e6 a3 b9
       -8.5658045e-05 -9.8170196e-05 8.4779786e-05 -0.00031261516
000010 71 46 18 39 fd 6b 25 38 c5 25 88 39 d1 7e 49 b7
       0.00014522091 3.9439637e-05 0.00025968082 -1.201006e-05
000020 b9 b3 72 b5 c5 9d 41 b9 53 b1 6e 39 46 e8 41 38
       -9.0413556e-07 -0.00018464688 0.00022763507 4.6231107e-05
000030 fe 6f 26 b9 bf 34 2e 39 b9 24 56 b8 6f 9a be 38
       -0.00015872714 0.00016613583 -5.1055777e-05 9.0886715e-05
000040 87 58 e2 37 b2 66 51 38 29 df f0 b7 dc 2c 8e 39
       2.6982523e-05 4.9925125e-05 -2.8714147e-05 0.00027117773
000050 95 a3 24 b7 98 28 70 b9 d3 9b 4a b8 ae 9e 2e b7
       -9.813249e-06 -0.00022903306 -4.8305676e-05 -1.0408154e-05
000060 bb 09 ce 37 c4 f0 85 b8 04 74 94 b7 6c 5a f1 b8
       2.4561645e-05 -6.38678e-05 -1.7696999e-05 -0.00011508618
000070 57 86 66 b8 01 26 fb b8 c7 d4 76 38 c8 7a 0d b8
       -5.4961387e-05 -0.000119756915 5.8849135e-05 -3.373137e-05
000080 5b 51 48 39 99 e6 5f 39 40 6e c6 b7 70 86 43 b8
       0.00019103794 0.00021352842 -2.3654778e-05 -4.6616828e-05
000090 b8 e7 2d b9 8a 36 5f b8 66 20 9b 38 4c 67 42 b9
       -0.00016584888 -5.3218137e-05 7.3970106e-05 -0.00018539763
0000a0 0b 59 3f b8 72 9d 12 38 6a 50 07 b9 02 e2 4c 39
       -4.5620876e-05 3.4955745e-05 -0.0001290456 0.0001953915
0000b0 39 5e 79 38 6a e5 b8 38 31 5d f1 b8 17 42 7a b9
       5.9453978e-05 8.8165354e-05 -0.00011509134 -0.00023866478
0000c0 84 8b 36 b9 fb a6 1b 39 e0 46 0e 38 85 0e c6 b8
       -0.00017408846 0.00014844157 3.3921446e-05 -9.44408e-05
0000d0 f4 dd 6b 38 82 86 2f 38 03 01 37 38 25 59 87 38
       5.6235076e-05 4.184852e-05 4.3631542e-05 6.453906e-05
0000e0 5a 38 cf 37 9b ec 1a 39 a0 43 4a 38 b8 3b d6 b7
       2.4702564e-05 0.00014774727 4.8223534e-05 -2.5538597e-05
0000f0 73 7b 57 38 37 e9 7c b8 c0 1a 41 39 3b 9d 86 b8
       5.1374966e-05 -6.029868e-05 0.0001841588 -6.4189044e-05

exp_avg_sq f4 [64]
000000 e0 ba bb 37 4b e9 4e 36 38 7c 49 37 15 05 a1 38
       2.2379158e-05 3.0832186e-06 1.20094555e-05 7.678025e-05
000010 85 4e 3d 38 b2 67 54 36 cf af 97 38 60 6f 48 35
       4.513424e-05 3.165082e-06 7.232988e-05 7.466788e-07
000020 bc f3 5b 35 56 a8 40 38 08 83 d9 37 84 5d 94 35
       8.193854e-07 4.5933142e-05 2.5929432e-05 1.1054076e-06
000030 9b 3d 58 38 26 70 4d 38 6e d8 33 37 74 96 ed 36
       5.1555788e-05 4.8980255e-05 1.0719623e-05 7.0806655e-06
000040 68 63 70 36 7c ef ea 35 b8 52 e9 35 bb ad c6 38
       3.582065e-06 1.7504058e-06 1.7383927e-06 9.4737356e-05
000050 2c e7 8d 34 e7 e9 43 38 38 da 17 36 19 3f 17 35
       2.6431496e-07 4.670946e-05 2.2627773e-06 5.63437e-07
000060 1b 5a ff 35 b0 2a da 35 3a dc 63 35 f6 aa ab 37
       1.9025205e-06 1.6254689e-06 8.488456e-07 2.0464398e-05
000070 6b f6 e3 36 8b 81 c0 36 3a 75 5f 36 13 96 9e 35
       6.793814e-06 5.7371267e-06 3.3297824e-06 1.1815595e-06
000080 3c 90 ac 38 51 de b6 38 95 e3 71 34 20 92 4c 34
       8.228465e-05 8.719846e-05 2.2527668e-07 1.905214e-07
000090 32 2f dc 37 8e 37 f2 35 ed 24 17 37 4c ac 62 38
       2.624802e-05 1.8046574e-06 9.008899e-06 5.4043063e-05
0000a0 4e 80 27 37 8e 29 90 36 21 4a 03 38 49 92 56 38
       9.983849e-06 4.296372e-06 3.130187e-05 5.1157815e-05
0000b0 5d f0 54 37 ff 53 c6 36 f6 cf 07 38 5f eb 86 38
       1.2692149e-05 5.9106383e-06 3.2380187e-05 6.433459e-05
0000c0 7a ae 1c 38 5b 94 6b 37 26 40 2e 34 78 07 23 37
       3.7355792e-05 1.4041633e-05 1.622835e-07 9.717296e-06
0000d0 eb 02 52 36 1f 91 a7 35 6d 89 97 36 41 91 ac 36
       3.1294137e-06 1.2484705e-06 4.516149e-06 5.1429092e-06
0000e0 67 21 eb 35 dd c0 56 38 b6 1e 1b 37 32 79 81 35
       1.7518586e-06 5.1201194e-05 9.24587e-06 9.646521e-07
0000f0 5d 65 8e 36 0e 11 b1 37 a4 8e 33 38 7a fe a3 36
       4.24373e-06 2.1107986e-05 4.280977e-05 4.8874035e-06

exp_avg f4 [64, 128]
000000 49 15 df 37 90 20 ac 38 ce cb b7 37 02 93 68 b7
       2.6593583e-05 8.207664e-05 2.1910204e-05 -1.38625055e-05
000010 80 39 2e 38 25 28 41 37 8c c1 32 b8 2e 6d e9 37
       4.1538384e-05 1.1513043e-05 -4.261876e-05 2.7826605e-05
000020 a2 40 07 b7 b8 9f cb 37 7f 4d cb b7 4b 5a 22 b8
       -8.0616755e-06 2.427386e-05 -2.4235573e-05 -3.87079e-05
000030 1c 4e 5b b8 77 3b 79 b8 45 b2 56 b8 3d bc aa 37
       -5.2286414e-05 -5.9421607e-05 -5.1187602e-05 2.0353235e-05
000040 5f 5b 9b 38 c4 8d 45 38 7f da fe b7 89 29 2b b7
       7.407995e-05 4.710049e-05 -3.0380905e-05 -1.0202065e-05
000050 6c 9a 18 38 01 af 54 38 64 74 aa 38 e5 7b 3c 38
       3.638344e-05 5.0707724e-05 8.127911e-05 4.493808e-05
000060 0d 3c e4 37 12 49 80 b8 90 7b 34 b8 75 1f 35 38
       2.7207681e-05 -6.117126e-05 -4.303042e-05 4.318306e-05
000070 13 b9 4a b8 c6 38 95 38 dd ec 58 35 6e 93 0c 38
       -4.8332917e-05 7.1154485e-05 8.081095e-07 3.3515906e-05
000080 f2 75 c0 b5 e5 68 6b 37 25 e4 7b 38 6c df 95 38
       -1.4339441e-06 1.4031514e-05 6.005554e-05 7.146489e-05
000090 53 04 bd 36 78 ab 6f b7 dc 8f ce 37 e7 3f fa b7
       5.6331423e-06 -1.4285433e-05 2.4624103e-05 -2.983208e-05
0000a0 2c 05 8e 38 86 6c 81 b7 9e 59 5d b8 3a 92 03 38
       6.772051e-05 -1.5428534e-05 -5.277397e-05 3.1369018e-05
0000b0 e7 22 81 b8 f0 f9 1d b8 3c 8a 53 38 d8 52 1b b8
       -6.1577004e-05 -3.766449e-05 5.043506e-05 -3.7032034e-05
0000c0 28 b0 72 b6 14 3a 6c 38 d6 42 af b8 72 d4 7d 38
       -3.6163347e-06 5.6320874e-05 -8.3570994e-05 6.0517756e-05
0000d0 06 cf f2 37 78 33 14 38 6d cd 2e b8 70 6c 2f b7
       2.894505e-05 3.5333884e-05 -4.167615e-05 -1.045606e-05
0000e0 c2 94 79 b7 6f ac 2b b8 c3 74 ab 37 9f a5 17 37
       -1.4876192e-05 -4.093017e-05 2.043916e-05 9.038863e-06
0000f0 88 ff 39 38 5b 3f c7 b7 ec 92 46 b8 0c b4 31 b8
       4.434542e-05 -2.375215e-05 -4.734371e-05 -4.236777e-05
000100 35 96 da 37 2b 34 4f 38 da a4 66 37 3f ce 66 b7
       2.605757e-05 4.940123e-05 1.3747451e-05 -1.3757089e-05
000110 34 de 28 38 1f 7c e8 b3 08 48 98 b8 44 0a 05 b7
       4.0261264e-05 -1.08259194e-07 -7.261342e-05 -7.929808e-06
000120 35 3d 3a 37 91 e3 ad b6 e0 0b 16 b7 95 08 30 b8
       1.1100715e-05 -5.182294e-06 -8.943462e-06 -4.1969663e-05
000130 f6 d6 60 b8 14 10 36 b8 75 d5 8b b8 bd 77 67 36
       -5.360596e-05 -4.3407155e-05 -6.667796e-05 3.449138e-06
000140 b4 9d 7e 38 51 ad 90 37 2c e8 2c b8 dc 24 03 37
       6.070519e-05 1.7246844e-05 -4.1224223e-05 7.8167905e-06
000150 10 8f 19 38 37 64 61 38 89 1f 85 38 63 3c 90 38
       3.661128e-05 5.3737513e-05 6.347808e-05 6.877703e-05
000160 ff 53 27 37 f7 2e 1a b8 84 e6 16 b8 c9 de 72 38
       9.9735325e-06 -3.67602e-05 -3.597747e-05 5.790478e-05
000170 db c8 36 b8 7f f1 4c 38 ec 4b 9f 37 aa 7a ae 37
       -4.3579243e-05 4.88623e-05 1.8989631e-05 2.0799536e-05
000180 41 25 8f 37 23 c9 6c 37 51 f8 9b 38 8b bb 6e 38
       1.7064276e-05 1.4113527e-05 7.4372285e-05 5.6918285e-05
000190 5b a1 d1 37 da 46 b1 37 e7 64 fa 37 6f ce dc b7
       2.4989879e-05 2.1133037e-05 2.9849309e-05 -2.6322172e-05
0001a0 17 43 67 38 bb c7 aa 36 23 c1 53 b8 22 9b ed 37
       5.5137174e-05 5.0896465e-06 -5.0486193e-05 2.8324841e-05
0001b0 fd 40 62 b8 9a 1a c2 b7 ae 46 93 38 a0 ed 90 b8
       -5.3943124e-05 -2.313899e-05 7.022671e-05 -6.910716e-05
0001c0 2b d4 5a 37 c3 52 c1 37 87 32 3d b8 7e 26 64 38
       1.3043212e-05 2.3045932e-05 -4.510817e-05 5.4395285e-05
0001d0 cd 01 b4 b7 f5 00 bd b5 9d 09 34 b8 19 a8 a0 b7
       -2.145851e-05 -1.4081876e-06 -4.2924297e-05 -1.9151763e-05
0001e0 3e 06 e5 b7 0b fc d1 b7 4a d0 81 37 22 03 89 37
       -2.7301834e-05 -2.5032108e-05 1.547499e-05 1.6333131e-05
0001f0 db 3e 59 38 c1 1b 0d b8 27 bd a1 b8 d5 94 47 b8
       5.179537e-05 -3.3642867e-05 -7.7123106e-05 -4.7583908e-05
000200 2f 6c d4 37 e9 6c 18 39 c3 3c e0 37 16 0e 18 b8
       2.5322746e-05 0.00014536422 2.6731175e-05 -3.6252743e-05
000210 47 7d 58 38 63 bf ca 37 7d a5 3f b8 ca 61 4d 38
       5.1615087e-05 2.4169398e-05 -4.569207e-05 4.8966882e-05
000220 09 5e 05 b8 44 67 55 38 dd e9 6b b8 0a f2 90 b8
       -3.1797248e-05 5.087933e-05 -5.624617e-05 -6.9115384e-05
000230 7d e9 92 b8 c2 28 99 b8 b1 cc 80 b8 7b 19 76 37
       -7.005313e-05 -7.3032e-05 -6.1416424e-05 1.4668675e-05
000240 d7 f9 f9 38 7f f5 cd 38 fc a8 62 b8 97 8e fe b7
       0.000119197815 9.820889e-05 -5.4039978e-05 -3.0345558e-05
000250 56 1f 7b 38 65 18 be 38 ed 98 0d 39 71 44 55 38
       5.9872247e-05 9.06445e-05 0.00013503777 5.08469e-05
000260 a7 ab 32 38 20 d4 f1 b8 ba d9 86 b8 64 b8 7f 38
       4.259837e-05 -0.00011531287 -6.430173e-05 6.0968465e-05
000270 b7 d3 70 b8 67 a4 fa 38 c9 dc 6e b7 2c 9b 31 38
       -5.7417634e-05 0.00011951551 -1.4237311e-05 4.2344604e-05
000280 10 a5 fa b6 94 02 63 37 e0 be 98 38 7f 4c e4 38
       -7.4697964e-06 1.3530855e-05 7.283478e-05 0.00010886136
000290 a5 7f 37 b7 b5 c6 38 b8 70 f4 54 38 50 5f 03 b8
       -1.093737e-05 -4.405408e-05 5.077239e-05 -3.13216e-05
0002a0 a0 27 b4 38 10 22 af b6 77 d1 90 b8 46 f3 65 38
       8.5904496e-05 -5.219372e-06 -6.905471e-05 5.482442e-05
0002b0 5b 34 a1 b8 5e 89 95 b8 84 62 78 38 a5 86 1b b8
       -7.68683e-05 -7.13046e-05 5.9219557e-05 -3.7080277e-05
0002c0 ca 67 86 b7 db 6d d9 38 7e 87 1a b9 a0 24 c0 38
       -1.6022375e-05 0.000103678285 -0.00014737059 9.1620954e-05
0002d0 de 28 64 38 da 70 99 38 74 5b 74 b8 6d 69 d0 b7
       5.4397497e-05 7.316629e-05 -5.8259306e-05 -2.4844625e-05
0002e0 fc 88 16 b8 13 b6 40 b8 d1 b5 e9 37 7f 9f 95 36
       -3.5890364e-05 -4.5945937e-05 2.786043e-05 4.459114e-06
0002f0 16 1f 66 38 fb 28 17 b8 a7 7c 5e b8 c7 37 4e b8
       5.4865224e-05 -3.603937e-05 -5.3045016e-05 -4.9166174e-05
000300 fc 97 ce 37 c2 86 c7 38 23 4c b6 37 3e 81 17 b8
       2.4627887e-05 9.51416e-05 2.1731545e-05 -3.612157e-05
000310 77 a4 53 38 74 3c 38 37 f3 8a c4 b8 0f 3f 92 b5
       5.045949e-05 1.098133e-05 -9.3718896e-05 -1.08962e-06
000320 5a 7d 03 b6 e0 bc ea 36 0a be 0a b8 66 e6 93 b8
       -1.9593485e-06 6.9957314e-06 -3.307875e-05 -7.052421e-05
000330 d3 c1 94 b8 d9 b2 88 b8 7a 54 b1 b8 04 33 80 b5
       -7.0932925e-05 -6.518298e-05 -8.455753e-05 -9.551591e-07
000340 5b 1d e0 38 7b a0 49 38 8a fc 78 b8 dc 82 90 b6
       0.0001068662 4.8071593e-05 -5.9363003e-05 -4.3067685e-06
000350 b6 74 7b 38 74 10 c1 38 30 7d ef 38 f1 03 b9 38
       5.995176e-05 9.206022e-05 0.00011419726 8.8222216e-05
000360 32 97 ca 37 5b 12 a2 b8 c1 5c 7d b8 22 a1 a1 38
       2.4150682e-05 -7.728181e-05 -6.0406284e-05 7.7070916e-05
000370 0a 8b 57 b8 9f 01 be 38 18 c4 51 37 fa df 0e 38
       -5.1389485e-05 9.060208e-05 1.2503027e-05 3.4064033e-05
000380 d2 32 7b 37 f9 28 64 37 33 1c c8 38 be 56 cd 38
       1.4972598e-05 1.3599399e-05 9.541996e-05 9.791319e-05
000390 02 5c a3 37 c4 5e 77 37 a4 fc 67 38 83 e6 e4 b7
       1.9473959e-05 1.4744412e-05 5.530998e-05 -2.7287058e-05
0003a0 26 72 ae 38 88 2c 0e 37 23 60 8e b8 5f 7a 5b 38
       8.318228e-05 8.474228e-06 -6.7889945e-05 5.2327636e-05
0003b0 d0 4a 8f b8 f0 cc 58 b8 36 ce bc 38 41 95 b9 b8
       -6.832706e-05 -5.1689276e-05 9.002948e-05 -8.849288e-05
0003c0 bb 19 ce 36 68 b7 5a 38 ec 63 b6 b8 db 85 bd 38
       6.142274e-06 5.214606e-05 -8.697048e-05 9.037155e-05
0003d0 10 09 b6 b7 cd 0f 6f 37 6b 94 76 b8 e7 70 fb b7
       -2.170031e-05 1.4249189e-05 -5.8789195e-05 -2.9974106e-05
0003e0 02 9e 34 b8 42 8b 0f b8 69 7a d1 37 99 c9 56 37
       -4.30625e-05 -3.422355e-05 2.4971743e-05 1.2802332e-05
0003f0 c1 4d 86 38 f9 b8 37 b8 f0 0d d3 b8 73 f8 6b b8
       6.404101e-05 -4.380287e-05 -0.0001006386 -5.6259752e-05

exp_avg_sq f4 [64, 128]
000000 6c 90 6f 35 ea 0b 74 37 2d c5 97 35 f5 e6 71 36
       8.92446e-07 1.4546307e-05 1.1307762e-06 3.6046233e-06
000010 49 06 2c 36 08 66 ac 35 8a 28 25 36 dd 66 40 36
       2.5633656e-06 1.2844694e-06 2.4610513e-06 2.8670104e-06
000020 4a 52 9b 36 37 0e 95 36 35 2d d3 36 1d 18 b2 36
       4.6289397e-06 4.442201e-06 6.293553e-06 5.3076205e-06
000030 51 b9 aa 36 f2 6d ee 36 7d bf 0a 36 48 b5 c4 35
       5.0879685e-06 7.105752e-06 2.0675063e-06 1.4655898e-06
000040 a2 f0 46 37 6f 2a 4b 37 64 e0 41 36 01 5f 42 36
       1.1857746e-05 1.2109623e-05 2.8889854e-06 2.8963552e-06
000050 d8 f0 89 36 c4 d3 04 37 04 3b 5f 37 a3 b1 b9 35
       4.110956e-06 7.917119e-06 1.3305576e-05 1.3835273e-06
000060 71 19 32 36 51 95 44 37 45 a2 a9 36 1e c9 4c 36
       2.6538876e-06 1.1717276e-05 5.055483e-06 3.0515434e-06
000070 b4 46 20 36 1a a2 45 37 d5 8f 03 36 5d a8 37 36
       2.3883013e-06 1.1779857e-05 1.9604242e-06 2.7367125e-06
000080 b7 95 b1 34 95 26 72 34 17 a7 19 36 6a 3b 45 37
       3.307775e-07 2.2552042e-07 2.2896036e-06 1.1755948e-05
000090 a7 ca 66 36 05 36 07 37 71 27 8f 36 46 75 83 35
       3.439063e-06 8.059204e-06 4.2663237e-06 9.794392e-07
0000a0 89 8b 20 37 ff c7 b5 35 fb 8e b1 36 42 06 82 36
       9.569231e-06 1.3543757e-06 5.291656e-06 3.8750304e-06
0000b0 e8 ca ae 36 5d 15 d5 36 8c e3 de 35 90 20 29 36
       5.2092255e-06 6.3503817e-06 1.6606514e-06 2.5201916e-06
0000c0 82 43 9a 35 16 7b 30 37 75 39 7e 37 74 0f 12 37
       1.1493541e-06 1.0519076e-05 1.51529575e-05 8.705876e-06
0000d0 68 44 46 36 fb a6 06 37 90 a6 70 36 69 c6 98 35
       2.9544117e-06 8.025901e-06 3.585974e-06 1.1382627e-06
0000e0 27 93 17 36 1c a1 43 36 80 07 94 35 66 54 85 34
       2.2586407e-06 2.9151042e-06 1.1029042e-06 2.4834588e-07
0000f0 dd 98 1e 36 9a b6 98 35 19 0a 1d 36 e2 d4 cc 35
       2.3632813e-06 1.1378027e-06 2.34007e-06 1.5261141e-06
000100 9b 40 66 35 6f 14 66 37 fe b4 2c 35 55 fd 71 36
       8.577569e-07 1.3713826e-05 6.433837e-07 3.6059257e-06
000110 45 3a 22 36 4b d2 b0 35 aa c3 88 36 ab e3 1d 36
       2.4173798e-06 1.3174225e-06 4.075894e-06 2.3527343e-06
000120 39 31 a2 36 6c 0f 8e 36 ef de d3 36 dc 37 b6 36
       4.8337065e-06 4.233725e-06 6.314243e-06 5.4305256e-06
000130 da 60 b1 36 16 46 89 36 46 b8 77 36 74 4e cf 34
       5.286286e-06 4.0910772e-06 3.691313e-06 3.8613837e-07
000140 86 03 3a 37 bb 47 45 37 6a 10 74 36 a3 e6 4e 36
       1.1087284e-05 1.1758816e-05 3.6368388e-06 3.083064e-06
000150 75 5d 8a 36 b7 2c 06 37 b7 84 53 37 27 90 5c 36
       4.1236003e-06 7.997433e-06 1.260748e-05 3.2866462e-06
000160 5f 4d 0f 36 40 4b 3e 37 99 dc 96 36 d2 38 9d 36
       2.1353696e-06 1.1342403e-05 4.4960293e-06 4.6855794e-06
000170 8d 56 fb 35 70 6d 36 37 e8 36 1f 36 3c c3 de 35
       1.8726147e-06 1.0873526e-05 2.3724806e-06 1.659711e-06
000180 d5 8e 37 35 52 f4 76 34 74 bd 7e 36 d5 2d 2f 37
       6.838066e-07 2.2999419e-07 3.7959226e-06 1.0441484e-05
000190 10 dd 81 36 79 1e 04 37 e0 a3 8f 36 87 79 3c 35
       3.8702347e-06 7.874908e-06 4.2808097e-06 7.0212303e-07
0001a0 4f 2d df 36 d0 73 ea 33 e3 2b a5 36 6e 91 7e 36
       6.6511925e-06 1.091754e-07 4.9224923e-06 3.79336e-06
0001b0 cb de 88 36 ec 7f ce 36 e5 7d 6a 36 38 f9 87 36
       4.0790524e-06 6.1541705e-06 3.4941997e-06 4.0523264e-06
0001c0 d0 45 c2 35 a6 fa 21 37 a1 45 6b 37 0b 19 07 37
       1.4474444e-06 9.654706e-06 1.4023303e-05 8.052458e-06
0001d0 ba 19 26 36 90 1a fa 36 2c f0 7a 36 ed 07 a1 35
       2.4750902e-06 7.453673e-06 3.7392701e-06 1.1997741e-06
0001e0 d2 d2 20 36 9d 58 7c 35 8d 50 66 35 fe e4 0f 35
       2.3964571e-06 9.4006265e-07 8.5798894e-07 5.360488e-07
0001f0 76 76 54 36 ea 47 ef 35 73 e0 8a 36 f9 5b 07 36
       3.1659415e-06 1.7827817e-06 4.13885e-06 2.0170103e-06
000200 41 23 14 36 7f d7 00 38 a6 57 21 36 08 6c 0a 37
       2.207424e-06 3.0718275e-05 2.4041888e-06 8.250594e-06
000210 60 d7 94 36 15 2a 49 36 1d 25 df 36 90 7b e5 36
       4.4358167e-06 2.997583e-06 6.6502384e-06 6.8391164e-06
000220 3e 40 3b 37 44 9c 2d 37 24 c9 70 37 06 1a 33 37
       1.1161026e-05 1.0347987e-05 1.4351946e-05 1.06752905e-05
000230 7a c7 12 37 b9 a3 81 37 9f de 6a 36 6c 77 8b 36
       8.748722e-06 1.5454238e-05 3.49983e-06 4.1564253e-06
000240 6a 20 c9 37 52 dc e2 37 a7 28 bf 36 cc 77 e9 36
       2.3976161e-05 2.7043894e-05 5.696976e-06 6.9578873e-06
000250 62 f9 05 37 4f 29 86 37 8a 7c e3 37 5d db 4a 36
       7.985482e-06 1.599328e-05 2.7118502e-05 3.0228032e-06
000260 7d 00 c5 36 4e 3b d3 37 66 63 28 37 7b e1 ac 36
       5.8711144e-06 2.5180776e-05 1.0036723e-05 5.152249e-06
000270 c0 86 99 36 29 be cd 37 7b c2 a7 36 60 8d c5 36
       4.5754423e-06 2.4526455e-05 4.9996283e-06 5.8875157e-06
000280 cf 80 82 35 a9 12 fa 34 c6 63 96 36 fe 55 c9 37
       9.723243e-07 4.6579706e-07 4.4819635e-06 2.400111e-05
000290 7e 85 12 37 a3 79 a2 37 9f 3b 1a 37 20 de 0f 36
       8.733359e-06 1.9368546e-05 9.192997e-06 2.1437954e-06
0002a0 92 3e a8 37 aa d3 88 36 de ec 1d 37 d0 05 05 37
       2.0056297e-05 4.077757e-06 9.413079e-06 7.928771e-06
0002b0 38 f6 22 37 bb 97 66 37 97 11 5a 36 e0 08 e6 36
       9.71328e-06 1.3744396e-05 3.249477e-06 6.8555673e-06
0002c0 04 cd 43 36 c4 24 c1 37 17 86 07 38 8a 31 8f 37
       2.91766e-06 2.3024513e-05 3.231139e-05 1.7069997e-05
0002d0 37 52 f6 36 ee 90 9a 37 47 b7 d2 36 f1 04 2c 36
       7.3409424e-06 1.8425719e-05 6.279824e-06 2.5632874e-06
0002e0 1e c8 ac 36 9c 97 e3 36 c4 3f 13 36 58 a0 38 35
       5.149296e-06 6.782777e-06 2.1941823e-06 6.877867e-07
0002f0 3e 12 7d 36 aa 41 02 36 f8 44 d1 36 e9 bd 31 36
       3.7710556e-06 1.940973e-06 6.2367144e-06 2.6485598e-06
000300 fb 5c 0e 36 e0 7e f8 37 53 58 a8 35 5f 89 0a 37
       2.121377e-06 2.9622985e-05 1.2542681e-06 8.257425e-06
000310 de f4 89 36 eb 48 58 36 1d c7 2c 37 ac 60 c1 36
       4.1114245e-06 3.2228952e-06 1.0298359e-05 5.7631023e-06
000320 23 12 49 37 df f2 2b 37 2f 62 78 37 88 85 33 37
       1.1984756e-05 1.0248942e-05 1.4804812e-05 1.0700322e-05
000330 04 be 19 37 8b 8c 07 37 de 51 ef 36 48 43 83 35
       9.163752e-06 8.07935e-06 7.1322856e-06 9.779842e-07
000340 8a ff be 37 b3 51 e2 37 98 46 e6 36 e5 d6 00 37
       2.276876e-05 2.6979344e-05 6.8627523e-06 7.679429e-06
000350 dc 3c 06 37 9a 48 85 37 00 9f db 37 ef c2 f5 36
       8.001192e-06 1.5888643e-05 2.6180875e-05 7.3242622e-06
000360 9e d6 a1 36 b6 0e d2 37 89 98 16 37 e2 4c 11 37
       4.8231586e-06 2.5040801e-05 8.976212e-06 8.660574e-06
000370 cd 6b 62 36 7d 9d c1 37 2b 09 cf 36 d0 90 60 36
       3.3739373e-06 2.3080729e-05 6.170148e-06 3.3462893e-06
000380 d4 8a f2 35 11 e7 ff 34 76 4a 03 37 6a a2 b3 37
       1.8070809e-06 4.7665574e-07 7.825545e-06 2.1414093e-05
000390 ed 92 27 37 49 fb a2 37 53 86 15 37 be ef c4 35
       9.9881845e-06 1.9428919e-05 8.912367e-06 1.4672912e-06
0003a0 9d 8b 5b 37 31 fb 76 34 c1 a2 10 37 dd 0d 04 37
       1.30859235e-05 2.3001918e-07 8.620963e-06 7.871041e-06
0003b0 23 0b ef 36 e9 41 66 37 f8 40 f7 36 ba a1 2d 37
       7.1240515e-06 1.3724414e-05 7.368737e-06 1.0349258e-05
0003c0 ee e3 7c 36 e2 2c b6 37 f5 06 00 38 92 7a 85 37
       3.7683599e-06 2.171699e-05 3.0524057e-05 1.5911912e-05
0003d0 04 bf d1 36 77 44 94 37 be 08 dd 36 f6 93 1c 36
       6.2509225e-06 1.7674856e-05 6.587331e-06 2.3331936e-06
0003e0 fb 56 9f 36 79 fb ec 35 8b 7a e0 35 60 2b bc 35
       4.748695e-06 1.7656558e-06 1.6724965e-06 1.4019715e-06
0003f0 ea c3 b9 36 10 ca 55 36 53 3c 2c 37 fb 70 7c 36
       5.536237e-06 3.185709e-06 1.0266044e-05 3.761669e-06

exp_avg f4 [64]
000000 80 68 be b8 78 a3 fd b8 57 f8 64 38 ef ab e7 b9
       -9.079371e-05 -0.000120944285 5.459072e-05 -0.00044187854
000010 1b 14 6f 36 86 e9 0b 39 66 d8 16 39 92 1f 4b 38
       3.5625478e-06 0.00013343067 0.0001438573 4.8428374e-05
000020 7a 5f 97 37 6d e6 3e b9 18 29 98 38 d7 19 c2 37
       1.8045062e-05 -0.00018205652 7.255579e-05 2.3138635e-05
000030 75 eb ad b8 60 cb 39 38 aa 6f bc b8 ae e2 ec 36
       -8.29314e-05 4.4296845e-05 -8.9853376e-05 7.059737e-06
000040 45 58 7f 38 22 2d 08 39 23 61 18 b9 b5 32 05 39
       6.0878945e-05 0.00012986784 -0.00014532036 0.00012702758
000050 03 c0 ae b7 cf 5d 62 b8 79 a9 91 b7 ea 23 97 37
       -2.0831829e-05 -5.3969965e-05 -1.7364264e-05 1.8017327e-05
000060 b0 7b a4 37 c8 d5 a7 38 d8 c1 f0 b7 65 3c 5a 38
       1.960792e-05 8.0030004e-05 -2.8700495e-05 5.2031497e-05
000070 1b a0 7f b8 50 39 97 b8 35 f4 45 b8 0b 7e a3 38
       -6.0945848e-05 -7.2109164e-05 -4.7195896e-05 7.795923e-05
000080 57 4c e8 38 29 d3 b1 38 7d 2e 86 b5 13 dc 8b b7
       0.000110768415 8.479349e-05 -9.997308e-07 -1.6672571e-05
000090 7a bc 1a b9 bd be eb b8 ef c3 8e 38 52 8e eb b8
       -0.00014756797 -0.00011241201 6.807583e-05 -0.000112321824
0000a0 43 f4 a7 38 cd f5 c7 37 7d 54 1e b9 15 d2 06 39
       8.008678e-05 2.3837109e-05 -0.00015099529 0.00012857497
0000b0 01 44 2e 38 69 b3 08 39 43 8b 5c b8 e7 4f 16 b9
       4.1548166e-05 0.00013036806 -5.2581785e-05 -0.0001433488
0000c0 c7 9f e7 b8 17 74 65 38 af c6 14 38 17 14 c8 b8
       -0.00011044699 5.470597e-05 3.547099e-05 -9.540485e-05
0000d0 59 81 0c 38 2c e0 98 38 62 18 b0 38 f3 cd e0 b8
       3.3499065e-05 7.28968e-05 8.396876e-05 -0.000107195134
0000e0 48 a9 80 37 f4 b8 c1 b6 29 41 a4 37 9d f8 66 b6
       1.5337617e-05 -5.7733796e-06 1.9580666e-05 -3.4417383e-06
0000f0 6a 09 b6 37 26 d2 0e b9 d0 2d 0f 39 d7 aa 8b 38
       2.1700474e-05 -0.00013620462 0.00013654609 6.659858e-05

exp_avg_sq f4 [64]
000000 ba 15 82 37 4d e5 e1 37 a8 11 e9 36 75 ea a5 39
       1.5507325e-05 2.6928867e-05 6.9459966e-06 0.00031645937
000010 d2 51 3a 33 cc 4c 24 38 39 10 09 38 1d d8 83 36
       4.3380915e-08 3.917217e-05 3.2678454e-05 3.929263e-06
000020 38 86 f8 35 4e b7 87 38 f2 7c 59 37 43 d2 a0 35
       1.8516503e-06 6.471445e-05 1.2963299e-05 1.1982123e-06
000030 45 99 94 37 88 4c 9a 36 c3 8c 6d 37 cd 54 1f 34
       1.7714347e-05 4.598467e-06 1.4159074e-05 1.4838879e-07
000040 2d 24 0e 37 20 43 0b 38 8d 96 3a 38 fb 34 e5 37
       8.472282e-06 3.3202698e-05 4.4486067e-05 2.7323598e-05
000050 91 69 81 35 2e fe eb 36 6a 7b 39 35 f8 f2 5c 35
       9.641973e-07 7.033136e-06 6.909746e-07 8.230995e-07
000060 60 3e 87 35 7e 00 5c 37 10 94 38 36 69 61 8a 36
       1.0076437e-06 1.3113136e-05 2.750432e-06 4.1240605e-06
000070 0b e9 d6 36 76 0b 39 37 e8 00 9a 36 a0 ef 5a 37
       6.4048268e-06 1.1029528e-05 4.589663e-06 1.3049605e-05
000080 01 90 be 37 1e 53 8b 37 27 6e 71 35 bb 44 67 35
       2.2716822e-05 1.6608796e-05 8.993979e-07 8.615422e-07
000090 4c f2 37 38 a6 b5 d7 37 7c d7 24 37 d3 21 bd 37
       4.3856257e-05 2.5714584e-05 9.825333e-06 2.2546306e-05
0000a0 f7 7a 51 37 af 96 03 36 76 21 25 38 29 40 12 38
       1.2486001e-05 1.960823e-06 3.937023e-05 3.4868866e-05
0000b0 6b d5 b9 36 22 0c 16 38 72 fa 08 37 f8 c4 89 38
       5.5382748e-06 3.5774086e-05 8.164543e-06 6.569357e-05
0000c0 6f 51 03 38 7d f8 ca 36 c0 63 77 36 6b 4b a1 37
       3.1308675e-05 6.048997e-06 3.686393e-06 1.9227815e-05
0000d0 8b be 25 36 a7 05 2c 37 da 61 8e 37 a5 61 b0 37
       2.4697827e-06 1.0253315e-05 1.6973285e-05 2.1026304e-05
0000e0 50 e5 74 35 da 74 e0 33 bb 8d c7 35 9f a4 8d 33
       9.1230777e-07 1.0452068e-07 1.4867904e-06 6.5957686e-08
0000f0 3a 21 8a 35 e3 24 14 38 87 53 1e 38 99 65 8b 34
       1.0291471e-06 3.5320303e-05 3.7747926e-05 2.596469e-07
